model/single_noDSC_v6_ch12_1.pt (torch_old, 5535 bytes, 8 tensors)

input_Y.weight f4 [12, 1, 3, 3]
000000 08 3f a6 3b c0 4b 04 3c 77 c7 9c bc 7e 40 bd 3b
       0.005073432 0.008074701 -0.019138081 0.0057755103
000010 b0 06 44 be c1 2c cf 3c 23 e4 c5 bc ad 93 0a 3d
       -0.19143176 0.025289895 -0.024156636 0.03383224
000020 ec 12 3e 3e ea c5 28 3d c4 08 93 bd c5 15 45 be
       0.18561906 0.04120437 -0.07179406 -0.19246586
000030 55 b9 7c 3d 90 02 f7 3d 0e a5 12 bd 70 bc c9 bc
       0.061700184 0.12061036 -0.03580194 -0.024625987
000040 14 7b 7b 3d 9f 19 a1 3c 97 82 71 bb 86 e8 e9 3d
       0.061396673 0.019665537 -0.003685152 0.114213035
000050 25 53 db bc 35 fa da 3d 83 7f ce be b8 ab ee 3d
       -0.026773045 0.106922545 -0.4033166 0.116538465
000060 24 7f ce bc 25 0d e5 3d 8c 3a 77 bb 40 1a 0c 3c
       -0.02520711 0.11184148 -0.0037724106 0.00855118
000070 15 83 0b 3c 4b cb 9c 3c e9 e1 2d 3c f4 c8 3c 3e
       0.008515139 0.019139906 0.010612943 0.18436033
000080 ad 9c 0a bd 80 7b 94 3c b5 80 04 bd ff 02 51 be
       -0.033840824 0.018125296 -0.032349307 -0.20411299
000090 32 46 3c 3c 85 48 db bd e1 88 17 3d 84 63 d0 bd
       0.011491345 -0.107071914 0.036995772 -0.10175231
0000a0 84 4f b3 3e cd 99 f1 bd 03 70 1f 3d c9 b3 e9 bd
       0.35021603 -0.11796913 0.038925182 -0.114112444
0000b0 dd 52 b3 3c 84 9c 7c bb 05 1f 04 bc 50 de 78 3c
       0.021890098 -0.003854544 -0.008064036 0.015189722
0000c0 42 f6 5a b9 b0 64 54 be 38 84 2c 3c 75 44 3b 3c
       -0.00020881838 -0.20741534 0.01052957 0.011429896
0000d0 16 8f 8a 3c 5d 02 02 bc 1c b6 5b bc 1e e0 ba 3c
       0.016913932 -0.007935134 -0.0134101175 0.022811946
0000e0 c9 0b f5 3d 66 2a b9 3c 35 ef 9b be e4 b7 c4 3c
       0.119651385 0.022603225 -0.30455938 0.024013467
0000f0 7a ae f0 3d 5c 26 e9 3c 77 69 6b bc bc 2b 76 3e
       0.11752029 0.028460674 -0.0143684065 0.24040121
000100 22 70 e6 ba d1 8f dc bc 8d b4 05 3c f8 fe 4b be
       -0.0017581026 -0.026924046 0.008160722 -0.19921482
000110 4c e8 02 3d 4b 7f 08 bd 94 ad 00 3d 98 ae 1b bd
       0.031959817 -0.03332452 0.031415537 -0.038008302
000120 c7 6b 3a 3d fb d8 9f 3d f8 19 88 3b dd 6c f3 bd
       0.04551294 0.078050576 0.0041534863 -0.118859984
000130 12 e2 e9 3d 6e 56 86 3d 7a 3e 2e be 0f a6 84 bd
       0.114200726 0.06559454 -0.1701602 -0.06476986
000140 a7 1a c7 3c ab 2e 48 3d d5 48 4f ba 4d 3d 2a 3d
       0.024304701 0.04887263 -0.0007907276 0.041562367
000150 43 99 22 3c 63 d3 c6 bd 86 93 95 bd 73 a0 15 3d
       0.009924236 -0.097082876 -0.073035285 0.03652997
000160 fa 33 9f bd 34 e5 f7 bc 47 a3 e8 3c df 21 32 bd
       -0.077735856 -0.03026066 0.02839817 -0.043489333
000170 62 51 a7 bd fb 8e 3a bd 07 18 a8 3e 9f ca 25 bd
       -0.081698194 -0.045546513 0.3283083 -0.040476438
000180 94 6c a6 bd b1 dd 39 bd 1a d5 a2 3c 7c 98 df 3c
       -0.081261784 -0.045377437 0.019877005 0.02729439
000190 30 de 8a bd 36 bb 85 bb 7d 3c 8a bd 40 15 5b be
       -0.0678066 -0.004081155 -0.067498185 -0.21394825
0001a0 80 63 88 3d b6 0b 32 bc 32 9c 8b 3d 33 d6 34 3e
       0.06659603 -0.01086705 0.06816901 0.17659836

b1_conv_1.weight f4 [12, 1, 3, 3]
000000 c1 ef cb bd 64 66 11 3c 64 a2 d9 3c d4 32 16 3c
       -0.09957839 0.0088745095 0.026566692 0.009167392
000010 b9 d8 bc 3d 15 14 c6 3c df c1 c5 3c 53 99 d0 3c
       0.09221024 0.024179498 0.024140297 0.025463736
000020 a2 37 68 3c b1 09 27 bd 2d 9e 0e bd 4f d0 cf 3b
       0.01417342 -0.040780727 -0.034818817 0.006341971
000030 89 27 3f bd 08 df b8 bd 6b 7f 03 bd ac 7b af 3a
       -0.046668563 -0.09026915 -0.032103937 0.0013388298
000040 46 dc 1f bd 70 e3 15 bd 0b d6 ad bc 3c 1f 8f bd
       -0.03902843 -0.036593854 -0.021220228 -0.06988379
000050 f1 64 15 bd 98 2a 97 bd 6c 4b 2d bb 6f 83 90 bd
       -0.03647322 -0.07381171 -0.002644266 -0.07056319
000060 08 0b 15 bd 7c 7e 96 bd 4a 2d df bc 6e b7 65 bd
       -0.036387473 -0.07348344 -0.027243275 -0.056083135
000070 a5 df 8d 3c 9f 49 f9 3c f5 be 99 3c 3b 4a 07 3e
       0.017318556 0.030430613 0.018767813 0.1321191
000080 51 b5 65 3c 52 dd f1 3c 7d a8 3b 3c 0b 97 86 ba
       0.01402028 0.029524479 0.011453745 -0.0010268403
000090 6e 33 84 3c 5a 51 b0 3d a2 29 ad 3c c0 a4 b5 3d
       0.016137805 0.086092666 0.021138016 0.08869314
0000a0 d7 cd 8f 3c 2b 36 b4 3d 6d 7e cc 3c 9d 93 b0 3d
       0.017554207 0.08799394 0.024962628 0.08621905
0000b0 1f b0 35 3c 64 fd 53 bb bd 5e b7 3d b5 ee bf bb
       0.011089354 -0.0032347078 0.08953617 -0.0058573135
0000c0 ce e3 a4 3d 2f db f5 bd 01 42 68 3d d1 25 15 ba
       0.08051263 -0.120046966 0.05670357 -0.0005689534
0000d0 20 3c 54 3d 78 fe 0b 3c e6 dd 0b 3d 5a 88 2f 3d
       0.051815152 0.008544557 0.034147166 0.042854644
0000e0 1c 0b a9 3a 07 08 3b 3d e4 c3 84 3d 5e 07 26 3d
       0.0012896988 0.045661952 0.06482676 0.04053437
0000f0 16 90 bf 3a 35 83 2f 3d 44 5a df 3c b5 aa 16 bc
       0.0014615085 0.04284974 0.027264722 -0.009195973
000100 2d 60 05 bd f8 76 07 bd 48 03 06 bd fb 44 ab bd
       -0.032562423 -0.03307244 -0.032717973 -0.08362766
000110 bc b7 36 bd 0c cd fb bc 16 d9 44 bd 3c 46 69 3d
       -0.044608817 -0.030737422 -0.04805859 0.056951746
000120 17 c7 0e bd b8 02 13 bd 1d 93 b2 3b f8 f7 29 bd
       -0.034857836 -0.035891265 0.005449666 -0.041496247
000130 d4 fd d6 bd 29 f1 01 bd d2 46 d3 3b 0b 18 14 bd
       -0.104976326 -0.03172413 0.0064476514 -0.03615574
000140 9e c8 14 bd 1f fa 3e 3d cc 16 83 3d 92 c7 59 bd
       -0.036324136 0.046625253 0.064008325 -0.05316884
000150 29 ff 8c 3d 43 21 bc 3d ff 43 d1 bb cd 3c 6f bd
       0.068846054 0.09186032 -0.0063862796 -0.058407594
000160 9f 03 7a bc a6 84 0f bd 50 b9 cd 3c a6 17 45 3d
       -0.015259652 -0.035038613 0.025112778 0.048118256
000170 20 31 e7 bb 22 a3 43 3d b2 f3 ba 3d 12 a8 27 3d
       -0.0070554167 0.047762997 0.091285124 0.04093177
000180 69 15 fb bb 07 c6 23 3d ca 06 c0 3c c3 11 04 3e
       -0.0076624644 0.039983775 0.023440737 0.128974
000190 01 75 a0 3d 28 87 46 3c 79 c4 9a 3d 17 90 f8 bc
       0.07834817 0.012117185 0.075570054 -0.030342145
0001a0 45 d2 23 bb 13 f5 75 3c 0d 2b b1 bb 73 3a 31 bb
       -0.0024997157 0.0150120435 -0.0054067434 -0.0027042895

b1_conv_2.weight f4 [12, 1, 3, 3]
000000 d3 cc b7 3c 67 ea 3f 3c 31 a3 06 bb d6 f5 33 3c
       0.022436535 0.011713601 -0.0020544047 0.010983905
000010 6b 83 0e be e1 31 e3 3b f3 8b f1 ba cf 5c bd 3b
       -0.1391732 0.0069334363 -0.0018428549 0.005778886
000020 60 f4 aa 3c 04 11 bc 3c 36 c4 15 3d 15 69 f8 3c
       0.02086848 0.022957332 0.036564074 0.030323545
000030 a9 82 0f 3d 20 c3 68 bd ff d0 80 bd f9 30 eb 3c
       0.035036717 -0.05682671 -0.06289863 0.028709875
000040 50 e3 7f bd 87 6f 36 bd 0f c5 43 3b 39 9d e3 3c
       -0.06247264 -0.044539955 0.0029872095 0.02778493
000050 6d f9 43 3d a8 38 d3 3c e0 cf 41 bc 91 69 f9 3c
       0.047845293 0.025783852 -0.011829346 0.030445846
000060 50 30 39 3d bd 70 e2 3c e1 8d d7 3b 49 20 67 bb
       0.04521209 0.027641648 0.0065781926 -0.0035267046
000070 4b 78 72 3c fc 3d e2 ba 7a 1c bb 3c 1e ba 16 be
       0.014799188 -0.0017260904 0.022840727 -0.14719436
000080 38 f1 b7 3c 19 91 e6 bb 9c 22 ef 3c a9 91 19 3b
       0.02245389 -0.00703634 0.029191308 0.0023432767
000090 98 a5 00 bc e0 82 86 3a 7a cd 0c bc 74 b3 16 3a
       -0.007851981 0.0010262392 -0.008593911 0.00057487865
0000a0 ee 94 41 be 43 f0 8c 3b 95 40 f4 bb cd 6a 9e 3b
       -0.18904468 0.0043011024 -0.007453988 0.004834509
0000b0 12 3f c1 ba ad 2e 53 3b d9 7c 97 bb 9c b0 a5 3b
       -0.0014743528 0.0032223866 -0.0046230373 0.005056454
0000c0 80 75 b7 bb 09 43 3a 3e 0a fa 8d bb 8b 52 91 3b
       -0.005598724 0.18189634 -0.0043327855 0.0044348887
0000d0 e4 bf b0 bb 42 93 fc 3a 70 b2 f4 3c a4 8d e6 3c
       -0.005393969 0.001926996 0.029870242 0.028143711
0000e0 55 5e 5f 3a 9e 38 08 3d e5 37 8c bd f7 fc 23 bd
       0.00085208315 0.03325712 -0.068465985 -0.040036168
0000f0 31 5d 23 3b 00 40 0f bd 00 e8 89 bb 31 73 42 bc
       0.0024927373 -0.034973145 -0.0042085648 -0.011868284
000100 48 25 61 ba 28 d0 56 3b 57 7c 3d bb 22 79 0b be
       -0.0008588624 0.003277788 -0.0028913224 -0.13620427
000110 8c 21 0c 3c 42 d5 27 3b 2e 8d cc 3a 65 f5 3d bc
       0.00855292 0.002560929 0.001560604 -0.011594151
000120 3b 3c 59 3a 32 3c 1b bd f6 e9 e6 bc b6 44 2e 3d
       0.0008286868 -0.037899204 -0.028187733 0.042545997
000130 03 0f 0a 3d 34 fb 43 bd 97 d2 8c bb 7c e9 21 3d
       0.033705723 -0.047846988 -0.004297565 0.03952931
000140 8b 0d a5 3a 6a 07 e9 3c 8e eb 1f 3d c0 44 b9 bc
       0.0012592537 0.028445918 0.039043 -0.02261579
000150 b7 d0 24 3d 1d 2e dd 3d 0d a4 e0 bc 1d a9 b8 bc
       0.04023811 0.10799811 -0.027421976 -0.022541577
000160 92 44 d4 bc f4 9e ab bc 67 9f f4 3c fe 2b 05 3c
       -0.025911603 -0.020949818 0.029861165 0.008128164
000170 38 9d c6 bc 4b d8 1f 3c d6 17 b6 3d 7c a5 fa 3b
       -0.02424489 0.009756158 0.08891265 0.007649122
000180 f5 fd c5 bc bc d5 28 3c b4 61 25 3d 66 a4 15 bb
       -0.024168948 0.0103048645 0.04037638 -0.0022833585
000190 f1 dd a2 3a 8c e1 43 3b 18 dc 39 3a f6 04 1b be
       0.0012425763 0.0029889075 0.00070899865 -0.15138611
0001a0 a1 6c cd bb 35 fa 65 3b d2 d5 99 bb 2b 2e 13 bc
       -0.006269053 0.0035091762 -0.004694679 -0.008983175

b1_conv_3.weight f4 [12, 1, 3, 3]
000000 d3 72 3f 3b 1d bd af 3b 7b 6c 4d 3a b7 e7 8f 3b
       0.0029212728 0.00536312 0.0007836294 0.0043916362
000010 83 f0 9e bd b9 5b 9a 3a f8 8f ba b8 60 e8 1a 3a
       -0.07760718 0.0011776603 -8.8959874e-05 0.00059092604
000020 fc 58 fd b9 c7 76 ff bb 7a 8b 3f bc 6c 16 d6 bb
       -0.0004832222 -0.007796142 -0.011690969 -0.0065334346
000030 18 d3 31 bc 0e 1a eb bc dd 55 3f bc 2b d0 e9 bb
       -0.010853551 -0.028698947 -0.011678186 -0.0071354113
000040 29 19 3f bc 42 24 02 bc dc 18 b3 3a 2c 75 31 3b
       -0.0116637135 -0.007943215 0.0013664025 0.0027077897
000050 49 fb 2b bb 96 3f ad 3a f9 0e 84 3d 4b ae c2 b7
       -0.0026242307 0.0013217803 0.06448168 -2.3207764e-05
000060 3b 19 29 bb 3b 16 bd 3a a4 33 cc 3a b2 e8 1d 3a
       -0.0025802392 0.0014426181 0.0015579355 0.0006023749
000070 c5 35 27 3b c5 e1 e0 b6 82 52 38 3b c3 3b cc bd
       0.0025514227 -6.7020032e-06 0.002812535 -0.09972336
000080 df 81 47 3b 6d da fc 36 49 d4 2b 3b a4 8b 54 3a
       0.00304424 7.5356133e-06 0.002621906 0.0008107966
000090 06 7c 5a 39 a0 81 d9 ba 15 d9 68 b8 d3 a2 31 bb
       0.00020836302 -0.0016594417 -5.5515284e-05 -0.0027105107
0000a0 88 64 be bd 20 08 64 3a fa 15 38 39 9e 12 b8 3a
       -0.092965186 0.00086987205 0.00017555794 0.0014043634
0000b0 3e b3 34 b9 ff 09 84 39 ec 16 1e 3a 09 a1 e4 b8
       -0.0001723291 0.0002518445 0.00060306373 -0.00010901882
0000c0 e4 b9 43 3a 4c 7b d6 3d ba 05 0c 3b 39 46 2f 38
       0.00074663595 0.10472736 0.0021365718 4.178865e-05
0000d0 50 e2 04 3b 50 1f a4 39 43 68 6c ba c0 48 69 3a
       0.0020276494 0.00031303847 -0.0009018222 0.0008899085
0000e0 93 c2 6a ba 6e b8 d1 3a a9 2e a8 bd 6f e4 c6 3a
       -0.00089553854 0.0016000399 -0.08212025 0.001517428
0000f0 29 96 87 ba d9 6d ca 3a db 08 fd ba 1e 20 90 bb
       -0.0010344434 0.0015444114 -0.0019305007 -0.00439836
000100 db a0 8b ba 5c be 0e bb 5b 01 84 ba ab 36 a5 bd
       -0.0010652797 -0.0021780943 -0.0010071205 -0.08067068
000110 ea 70 53 ba a4 76 1b bb 77 5e a1 ba 4c b2 15 bb
       -0.0008065837 -0.0023721838 -0.0012311478 -0.002284187
000120 97 99 b3 3a 68 2d c1 37 7a 9b c5 3a a0 d7 41 39
       0.001370239 2.3028537e-05 0.0015076243 0.00018486241
000130 1a 1f f1 3d 26 b8 d6 ba 39 30 a4 3a 11 e4 bd ba
       0.1177351 -0.0016381785 0.0012526579 -0.0014487525
000140 5c 34 2a 3a 8e 8b 53 ba 7a 1b 1b bb cb f5 51 b9
       0.00064927875 -0.00080698065 -0.00236675 -0.00020023358
000150 f7 07 99 ba 38 b0 c0 3d 57 cc a9 ba c0 0f 89 b9
       -0.0011675347 0.09408611 -0.0012954575 -0.0002614241
000160 20 78 05 ba 24 2f db b9 b2 78 bc 3a 8a 0d b4 3a
       -0.00050914474 -0.00041806058 0.0014379232 0.0013736945
000170 c9 14 54 39 27 ce 08 3b 84 5a e8 bd 52 10 70 b9
       0.00020225639 0.002087483 -0.113453895 -0.00022894263
000180 cd 90 51 39 e0 a2 2e 3a 32 08 74 3a 58 0b 87 39
       0.00019985736 0.00066618435 0.00093090825 0.00025757658
000190 c5 53 9d ba 18 c6 08 b7 d5 65 f5 ba 82 2b b9 3d
       -0.0012003115 -8.152354e-06 -0.0018722365 0.090415016
0001a0 d8 02 c0 3a 3f 66 af b9 34 75 d4 3a 31 88 4f ba
       0.0014649285 -0.0003345478 0.0016209246 -0.00079167174

p_conv_1.weight f4 [12, 12, 1, 1]
000000 fd d0 81 3d 20 b8 ca bc 43 c3 97 bc 6f b4 5f 3d
       0.063386895 -0.024746 -0.018525725 0.054615434
000010 a7 a0 b7 bc 44 57 9d bc 3c 9e 44 bd 22 b1 af bd
       -0.022415472 -0.01920665 -0.048002467 -0.08578707
000020 d9 65 80 bc 14 24 76 bd 6d d8 70 3d 44 83 a7 3d
       -0.015673565 -0.060093 0.05880015 0.08179334
000030 0e e3 ab ba ab 56 55 bd 3f 33 6a b9 aa 23 99 3d
       -0.0013113932 -0.052084606 -0.0002233507 0.074775055
000040 54 7d 18 bc e9 3f d5 bc 92 63 1c bd 1b 6e 86 bd
       -0.009307224 -0.026031451 -0.038180895 -0.0656397
000050 2a 8a 4c bd 65 94 35 3c 9f 7b 7c 3c dd bd 9e bc
       -0.04993645 0.011082743 0.015410333 -0.019377643
000060 9b 83 aa 3c b5 ae 61 3d 38 cb b7 bb 86 ae ad 3d
       0.020814708 0.055098254 -0.0056089424 0.08480553
000070 f7 6a 34 3c 4f 91 88 bc 08 b8 b5 bc c0 1c 1a bd
       0.0110118305 -0.016670851 -0.02218248 -0.037625074
000080 03 d6 5f 3d 10 61 51 3b 25 17 95 bc c7 f6 ae 3d
       0.054647457 0.0031948723 -0.018199513 0.08543163
000090 40 f2 45 3d 3f 89 a6 bc c1 1a 3a 3d 85 72 cd bc
       0.04832673 -0.020329116 0.04543567 -0.025079021
0000a0 16 10 83 3d 86 99 49 bb d7 a8 31 3d 99 3b 19 bd
       0.063995525 -0.0030761673 0.04337391 -0.037410352
0000b0 3c 95 fe bc 24 65 8a 3d 89 91 a0 bd af 69 7f bc
       -0.03107702 0.06757572 -0.07840259 -0.015589162
0000c0 14 86 b5 3d a5 f6 cb bd 49 53 de bc 8a 8b 0d 3d
       0.08863464 -0.09959153 -0.027139323 0.034556903
0000d0 0d f7 75 bd e9 ee e7 3d 51 61 87 3d c0 db ca bd
       -0.06005006 0.11324865 0.066103585 -0.09905195
0000e0 5b d5 c3 bd 01 a3 29 bd 1b ad 29 be fb c4 89 3d
       -0.09562179 -0.04141522 -0.16569941 0.06727024
0000f0 60 08 97 bd 1f 6e 28 3d 6c b7 93 bd a0 dd 12 3d
       -0.07374644 0.041120645 -0.07212719 0.03585589
000100 93 08 72 bd 43 bf 97 3a 83 c8 db bd b3 57 81 3d
       -0.05909021 0.0011577386 -0.10731604 0.063155554
000110 e9 8f 48 3d c5 23 ad bd 1e a6 da 3d 8b 24 b5 3c
       0.04896537 -0.08454088 0.106762156 0.022112152
000120 6b 8a c2 3c 7d aa d5 3c b4 5f 44 bc af 1a e8 bd
       0.023747643 0.026082272 -0.011985708 -0.113332145
000130 7f 6e 33 bc 31 f5 55 3b 6f f4 a4 3c 01 c8 86 3d
       -0.010951637 0.0032647366 0.020136086 0.065811165
000140 e1 66 f3 3c d6 c8 54 3c 0c 0e b3 3b 07 3e 41 3c
       0.029712142 0.012987336 0.005464321 0.011794574
000150 25 e1 1f 3c 7d 13 c0 bd eb 6f cc 3b 30 53 d8 bd
       0.0097582685 -0.09378717 0.0062389276 -0.10562742
000160 fe 36 a4 3c 68 72 61 3c fd 61 24 bc eb 1c 97 3c
       0.020045754 0.013760187 -0.010033128 0.018446406
000170 63 c2 bf bd e1 90 3c 3b 11 d6 37 bd 42 d0 bd bd
       -0.09363248 0.0028772878 -0.044881884 -0.09268238
000180 8d be cd 3a 5d cc 8e bc 47 18 3c bc 11 98 71 bc
       0.0015697047 -0.017431432 -0.011480398 -0.014745728
000190 75 59 64 3c c0 a5 f9 3b 1e 40 72 bb 3b fb 88 3b
       0.013937344 0.007618636 -0.0036964486 0.0041803396
0001a0 7b 97 ee 3d 75 1c af 3c cf aa d7 bc d9 05 9d bc
       0.11649986 0.021375874 -0.026326565 -0.019167827
0001b0 94 94 3d 3d be 18 5b bd 38 7e 15 3b a8 1f 62 bd
       0.046284273 -0.053490393 0.0022810828 -0.05520597
0001c0 64 9e f7 3b 60 cc 80 bc e5 d9 08 bd 24 2d 62 3c
       0.0075567234 -0.015722454 -0.033410925 0.013804708
0001d0 35 c6 46 bd 0e 09 07 bc b8 28 74 3c 6b 38 af 3d
       -0.04852887 -0.008241905 0.014902286 0.08555683
0001e0 33 f5 22 bd 41 96 b0 bd 92 2d 8e 3b bc d0 ea bc
       -0.03978462 -0.08622409 0.0043389285 -0.028663985
0001f0 72 4d ba bc c6 2c da 3a f5 74 9f 3d 11 f0 08 3d
       -0.022742007 0.0016645424 0.0778598 0.03343207
000200 47 dc 95 bd c5 f9 2f bd 5e a9 f6 3c f1 6b c2 bc
       -0.07317405 -0.04296281 0.030110057 -0.023733111
000210 61 a8 07 3d 99 72 05 bd eb c0 ec 3d a5 d0 b2 3d
       0.033119563 -0.032579992 0.11560234 0.08731202
000220 d0 ed c1 3d 18 f4 34 bd 9f 29 e7 3a ad c8 40 bd
       0.09469187 -0.0441781 0.0017636305 -0.04706638
000230 45 26 3d bd 53 f1 21 bd 54 2e 88 bd c2 1b d7 3d
       -0.046179075 -0.039536785 -0.066494614 0.10503341

p_conv_2.weight f4 [12, 12, 1, 1]
000000 58 7e 72 3d db 6e 68 3d e7 20 94 bd b9 68 eb 3c
       0.059202522 0.056746345 -0.07232838 0.02873646
000010 01 17 07 bd 2d 1e af 3c ef 2d 98 3d a8 54 1b 3d
       -0.032980923 0.021376694 0.07430636 0.03792253
000020 20 06 d8 3b 6f 5f 16 3d af 2e 7f 3c a3 cd e8 3c
       0.006592527 0.036712106 0.015575095 0.028418368
000030 d4 9d 79 bc 15 1c 1e 3d b2 01 b2 3c 87 33 3e 3c
       -0.015235383 0.038601 0.021729324 0.011608965
000040 7c b4 e4 bb d8 09 f0 3c e1 4b 4d bc a1 90 ec 3a
       -0.006979523 0.029301569 -0.012530298 0.0018048474
000050 8a 32 02 bc 18 0e 1b bd 23 c1 da bd b2 5e ef bb
       -0.00794662 -0.037855238 -0.10681369 -0.0073049897
000060 eb 42 47 3d ef 99 ce 3c 7d f9 54 3d ad a5 0e 3d
       0.048647802 0.025219886 0.051995743 0.03482597
000070 3d f5 0f bd b2 98 77 bc c7 65 43 bb c3 3e 5e 3c
       -0.035145987 -0.015112089 -0.0029815303 0.013564768
000080 1a 5d 00 bd 0f 81 6d bd eb 1e 32 bc 85 8e 8e 3c
       -0.03133879 -0.057984408 -0.010871629 0.017401943
000090 86 2d 96 3b fe e7 a9 ba 4b 7a 7c 3d ed 54 93 3d
       0.0045830635 -0.0012962816 0.061640065 0.07193933
0000a0 1a 36 ac bd cd 0e dc 3d 14 6e b3 3b 38 09 e7 ba
       -0.084087566 0.107450105 0.005475769 -0.0017626649
0000b0 fc dd 8c bc b9 58 10 3b 01 a6 8f bd d0 59 97 3d
       -0.017195694 0.002202554 -0.070140846 0.07390177
0000c0 fb 01 fb bc 46 ce f7 bd ed d1 13 bd 6c 54 b8 bc
       -0.030640593 -0.120998904 -0.036088873 -0.022501193
0000d0 96 d7 19 3d 6a c6 de bd 2b f1 91 bd 45 87 5c bc
       0.037559114 -0.10877688 -0.07126077 -0.013459985
0000e0 09 fe 34 3c 06 88 e0 bd 34 20 9d 39 49 a5 05 3d
       0.011046895 -0.109634444 0.00029969367 0.03262833
0000f0 68 9a b6 bd 4d d3 1b bc 66 d6 a3 bb 27 97 ea 3c
       -0.089161694 -0.009510827 -0.0049999235 0.028636528
000100 6b 4f e6 bd 3c 48 86 bd 15 b4 0c bd 5e f5 06 3d
       -0.112456165 -0.06556746 -0.034351427 0.032948844
000110 e4 88 8e 3a a4 0b 03 3c fb cf 2c bd ce 59 9e 3d
       0.0010874537 0.007998381 -0.042190533 0.07731973
000120 47 a9 7e bb a8 2a 05 3d 5a 7d 45 bc ec 53 3b bd
       -0.0038858221 0.032511383 -0.012053812 -0.04573433
000130 04 25 b9 3d 26 87 94 bd 25 0f 9b 3c 66 aa 27 bd
       0.09040263 -0.0725234 0.01892812 -0.04093399
000140 a8 e3 0f bc 8f 52 c2 bc 01 1f 1f 3d bf 05 d9 bd
       -0.008782305 -0.023721008 0.038847927 -0.10596799
000150 e9 a4 a4 3d 10 dd c7 bd 05 e2 73 bd 22 2e 2f 3d
       0.080392666 -0.09758961 -0.05954172 0.042768605
000160 db 4e 8e bc 6b aa e0 3b aa 4e 95 bc eb bf 2b 3d
       -0.017371586 0.006856253 -0.018225987 0.041931074
000170 ba e3 16 bc 43 33 8b bd d7 14 c8 3d ec 12 2c bc
       -0.009209568 -0.06796887 0.097696 -0.010502558
000180 9b ec 97 bc bf 55 a6 bc 7f 2e 38 3d 91 98 c9 3d
       -0.01854544 -0.020304559 0.044966217 0.09843553
000190 07 9c 03 3d 26 77 fa 3c 12 48 2b 3d 22 95 1d bd
       0.03213122 0.030574393 0.04181678 -0.038472302
0001a0 d3 3e 4e bd 43 a8 8b bd 32 1c 4f 3d 01 03 f3 bd
       -0.050352883 -0.06819203 0.050564 -0.11865807
0001b0 ca 51 99 3d dd 90 70 3b 42 ea 7d 3d ca e9 0c bd
       0.07486303 0.003670744 0.061990984 -0.034402646
0001c0 db 4c e8 bc 64 b7 58 bc 10 31 c3 bc a5 e1 a4 3d
       -0.02835696 -0.0132273175 -0.023827106 0.08050851
0001d0 af 2c bf 3c eb 73 cc bc ff ac 6e bd eb 50 03 ba
       0.023336736 -0.024957618 -0.05827045 -0.0005009311
0001e0 a8 15 c5 3d 6c 98 44 bc 6e 8a 6e bd a4 13 b2 bc
       0.09623271 -0.011999231 -0.058237486 -0.021737881
0001f0 2a d6 f2 bd 87 aa f9 3a 61 e4 a1 bb 94 c6 05 3c
       -0.11857255 0.0019048013 -0.004940555 0.0081650205
000200 06 cf b8 3c 25 93 9e bc 41 05 1d 3d bb 25 89 bc
       0.022559654 -0.019357273 0.03833509 -0.016741624
000210 32 71 a0 bb 45 a7 07 3e 58 71 71 bd 82 7c 11 bd
       -0.0048963064 0.13247402 -0.058945984 -0.03551913
000220 e7 8e a0 3c f2 f7 db bd b9 23 9b 3c 40 27 5d bc
       0.019599391 -0.10740651 0.018937932 -0.013498127
000230 36 9e 86 3c 0a 54 02 3e e9 fb a1 bc 0f 2e 5e 3d
       0.016432863 0.12727371 -0.01977344 0.054243144

p_conv_3.weight f4 [12, 12, 1, 1]
000000 fd b4 9c 3c c1 bc 4f 3c bc aa bd bb 59 ec 82 ba
       0.01912927 0.01267928 -0.0057881754 -0.000998865
000010 cd 92 33 bb dd 40 b3 bc 6c 83 1b bd f1 10 9a 3c
       -0.0027400733 -0.021881515 -0.03796713 0.018806906
000020 fc dd 99 3d 8d 34 86 3c fd 01 e1 3c ee 96 9c 3d
       0.07513043 0.01638248 0.027466768 0.07645975
000030 13 ba d1 bb a6 9a 09 bd 47 fd 29 3d 6f 6a b2 bc
       -0.0064003556 -0.03359475 0.04150131 -0.021779267
000040 dc 6e fc bc 11 a7 97 bc ad ed a4 3c d4 6c ab 3c
       -0.03081458 -0.01851228 0.020132864 0.020925917
000050 5f 2f fc 3c a2 78 91 bd 41 b5 a8 bc 35 42 90 3b
       0.030784307 -0.07103087 -0.020594241 0.0044024237
000060 78 38 5b bc 92 2e 35 3b 87 29 0a bc 9e d2 24 bc
       -0.013380162 0.0027646166 -0.008432752 -0.010059981
000070 9a 64 d0 bd d3 41 2e bc b6 ad a5 bd 05 90 1d 3d
       -0.10175438 -0.010635811 -0.08089773 0.038467426
000080 10 71 86 3d df 7e 17 3b 09 84 85 3c 0d 48 16 bc
       0.06564534 0.0023116393 0.01629831 -0.009172452
000090 6b 46 80 bc 90 77 8d bc 66 9f 0c bd 65 8a 0e bd
       -0.015658578 -0.017268926 -0.0343317 -0.034799952
0000a0 27 39 44 3d b1 cd 9e 3d 0a bd 6b bc 28 87 18 bc
       0.047906067 0.07754076 -0.014388332 -0.0093095675
0000b0 c3 c4 03 bd 63 82 54 3c f0 df 66 bd 83 4e 0f bd
       -0.03217007 0.01297054 -0.056365907 -0.034986984
0000c0 a0 4a 4e bd 14 98 66 bb 3c 22 a7 bc c0 3f 84 bd
       -0.050364137 -0.003518586 -0.020402066 -0.06457472
0000d0 6e 84 11 3d e8 e5 89 3d 08 33 a6 bb a8 ff ac bd
       0.035526685 0.06733304 -0.0050720014 -0.084472
0000e0 6a ef 76 bd ab 52 32 3d e9 2c c9 3c 92 7d c0 bc
       -0.060286917 0.04353587 0.024557548 -0.023497377
0000f0 72 96 18 bd c3 d3 26 bc 96 4e 2e bc 6d f5 01 3d
       -0.03725285 -0.010182324 -0.010638854 0.031728197
000100 68 02 23 3c a5 1a 01 3c a5 b6 3e bd 18 58 7d bc
       0.009949304 0.007879888 -0.046560902 -0.015462898
000110 b1 4e fd 3b a3 af 4c 3d a7 f3 5b 3d c0 4c 9b 3b
       0.007730328 0.049972188 0.05369916 0.004739374
000120 16 19 eb bb c7 3f bb bc 30 5d 54 bc 3c 46 2f 3d
       -0.0071746213 -0.02285756 -0.012961671 0.04279159
000130 d4 b0 29 bd 7e 87 c7 bc 83 c2 11 bd e7 c4 0d 3c
       -0.041428402 -0.0243566 -0.03558589 0.008652902
000140 1c a7 b1 3d 15 ff 80 3d eb e3 c9 3c 8c 67 09 3d
       0.08674452 0.06298653 0.024644813 0.033546016
000150 32 a2 1f 3d d6 26 86 bc 8a 57 8b 3b c3 99 77 39
       0.03897304 -0.01637594 0.004252379 0.00023613036
000160 65 2d 1f 3c b1 80 0a bd 87 cb 8f bc 2e c9 de 3c
       0.009715413 -0.033814136 -0.017553104 0.02719554
000170 b0 d2 8f 3d d7 48 9a bc 70 34 ed bc 76 8e 95 3d
       0.07022607 -0.01883356 -0.028955668 0.07302563
000180 88 09 48 bd c7 0b 51 bb cd 77 0d 3d e6 c3 ff bc
       -0.048837215 -0.003189789 0.03453808 -0.031221341
000190 d9 23 e1 3c 23 51 ca 3c 32 4d a4 3c a6 eb f7 bc
       0.027482914 0.024696892 0.02005634 -0.030263733
0001a0 fa 23 5f bd 0a d7 5d bd ce 1a e2 bb 9d 26 7b bc
       -0.05447767 -0.054160155 -0.006900168 -0.01532903
0001b0 0e ba 07 3d 6f c9 8f bc d9 3f 82 bc 86 24 46 bd
       0.03313642 -0.017552106 -0.015899586 -0.048374675
0001c0 c6 d1 fd 3b 1e de 6c 3b 39 d8 dc b9 2f 89 48 3c
       0.007745954 0.0036143134 -0.00042122768 0.012239738
0001d0 d5 58 96 bc 8e cc 35 bd c4 6a ce bd 7b 75 d0 bc
       -0.018352905 -0.04438453 -0.10078958 -0.025446644
0001e0 5a f5 c0 3c c8 48 97 bc 59 5b 61 bc bb 98 8f bd
       0.023554493 -0.018467322 -0.013754689 -0.07011553
0001f0 fc 61 5b 3d f6 25 64 3c b4 3a 6f 3c 52 0f 14 bd
       0.053560242 0.013925066 0.014601398 -0.036147423
000200 48 a1 86 bd 87 f3 81 bd ca 73 91 bd b9 3a 8b bc
       -0.06573731 -0.06345277 -0.07102163 -0.016995775
000210 2d d0 50 3d 5c 3a cd bc aa de 5a bd ad e6 47 bc
       0.050979782 -0.025052242 -0.053435005 -0.0122009935
000220 ce bd 3e bd 9c ee 25 bd 77 1b b1 bb 77 27 e2 bb
       -0.04656773 -0.04051076 -0.0054048854 -0.006901677
000230 33 30 38 bd 63 a5 fc 3c 63 36 b7 bc 8b b7 15 3d
       -0.04496784 0.030840581 -0.0223648 0.036551993

output_Y.weight f4 [1, 12, 3, 3]
000000 3b 8b f4 bd 27 63 bb 3c 0e fa c2 bd 28 41 e4 bb
       -0.119406186 0.022874428 -0.095203504 -0.006965775
000010 80 60 ff 3e c5 83 09 be b0 bc f6 bd f6 ea f6 bd
       0.4987831 -0.13429172 -0.12047708 -0.12056534
000020 35 97 36 be a6 c3 58 be 99 9a b8 bd 24 07 1c 3e
       -0.17831118 -0.21168384 -0.09013862 0.15237099
000030 9a 00 69 bd 80 19 df bd 5d 20 ad bd 8a 72 ae 3d
       -0.05688534 -0.108935356 -0.084534384 0.0851794
000040 00 6f 2d bc e5 e7 61 be a7 1b 88 be 30 4e 56 be
       -0.0105855465 -0.22061117 -0.26583597 -0.20928264
000050 bb de c8 bc f5 56 44 be 5f 23 54 3f fa 05 a1 bd
       -0.024520269 -0.19173796 0.8286647 -0.07862468
000060 24 67 23 bc 63 ea c3 bd 57 c9 08 bd 22 9a 8f 3e
       -0.009973321 -0.0956619 -0.033395138 0.28047282
000070 f2 d3 1f bb 69 fa a4 3d 58 f3 d8 3c 67 3a f0 be
       -0.0024387804 0.080555744 0.026483223 -0.46919557
000080 11 8e dd 3d e2 a9 c4 3d f2 f2 c0 3d d1 e9 f5 3d
       0.10818113 0.09602715 0.09421338 0.120074876
000090 87 86 5d 3e 7d 06 fa 3d 79 b6 8c bd ed 80 e0 3d
       0.2163335 0.12208269 -0.068707414 0.10962091
0000a0 c9 d9 3d bf 86 18 75 3c 81 68 af bd ee 77 50 3d
       -0.7416044 0.01495946 -0.085648544 0.050895624
0000b0 21 31 8b 3e ee 03 55 3e 77 3f b1 bc 72 2c 1a be
       0.2718592 0.2080228 -0.021636708 -0.15056017
0000c0 db c5 63 bd 83 e5 66 3e bd 3c ef bd bd e4 44 be
       -0.05560861 0.2254849 -0.11681507 -0.19227882
0000d0 09 9f f5 bd 23 69 e3 3d 6c c9 8c bc 15 e8 fc bc
       -0.11993224 0.111040376 -0.01718589 -0.030872384
0000e0 59 12 62 be 48 88 47 bc af e4 22 3f a9 5a 60 ba
       -0.22077312 -0.012178488 0.63630193 -0.0008558431
0000f0 a5 d7 64 be 57 96 91 3b c0 e3 bb 3c 81 4d f1 3c
       -0.22347887 0.0044429707 0.022935748 0.029455902
000100 ca ba 34 bd 3a 17 c7 3c 2e 25 ca ba dd 27 ea 3e
       -0.04412345 0.024303067 -0.0015422457 0.45733538
000110 a6 46 7c 3b dd 48 eb 3c bd 42 8d bb 5f 3d b1 be
       0.0038494258 0.028721267 -0.0043109343 -0.34617135
000120 a1 45 26 3c 31 6f 2c bd 42 14 c2 bc 1a 68 20 bd
       0.010148437 -0.042098228 -0.0236913 -0.03916178
000130 8a aa d1 be d6 e3 a1 bc b3 3a 28 3d 1a 20 bd bd
       -0.40950423 -0.019761961 0.041071605 -0.092346385
000140 94 3c 30 bd 57 40 20 be 69 25 2f 3b de 09 8d 3e
       -0.04302652 -0.15649544 0.002672518 0.2754659
000150 61 f9 8f bc 7f 1a 7c be 3c e2 c1 3c a7 6e 92 3e
       -0.017574968 -0.24619482 0.023667447 0.28600046
000160 ab 8d 0d 3c 02 a9 88 3c 93 56 93 bc ec 8c ea 3d
       0.008639733 0.016682152 -0.017985618 0.1145266
000170 3d b6 86 3e d3 6a db 3d 99 ea 22 bf 1c 0f 38 3d
       0.26310912 0.107137345 -0.6363922 0.044936284
000180 d9 3d 6f 3e 2e bc 57 3d 9f 41 c6 bd e5 ae aa bd
       0.23363437 0.052669697 -0.09680485 -0.0833414
000190 0e c9 6c 3d 04 02 30 3d f6 a3 aa 3c 59 e1 e2 3e
       0.05780893 0.042970672 0.020830136 0.44312552
0001a0 b4 c3 8e 3d a5 2b b3 3d ac d9 d0 3d af a9 05 3d
       0.06970921 0.08748559 0.101977676 0.032632526
