model/single_noDSC_v6_ch8_1.pt (torch_old, 3855 bytes, 8 tensors)

input_Y.weight f4 [8, 1, 3, 3]
000000 cb 68 02 be 84 ac 49 be 18 44 45 3b 55 9e 66 bd
       -0.12735288 -0.19694716 0.0030100401 -0.05630334
000010 09 5d 98 3e bb 57 45 3c 47 77 e9 3c 0a 62 c4 3d
       0.2975848 0.012044842 0.028499259 0.09589012
000020 6a 6f f9 39 38 c6 90 bd 2f a5 2b 3e da 54 99 bc
       0.0004757599 -0.07069057 0.16762231 -0.018717218
000030 25 de 26 3e f1 9e e5 be 37 d5 aa 3d 9b 68 cf bc
       0.16295679 -0.44847825 0.08341449 -0.025318434
000040 ca da 8b 3d 34 ed 57 3d 37 e4 31 bc 6a 35 00 be
       0.0682884 0.05271645 -0.010857633 -0.12520376
000050 80 13 87 3c 36 5f b1 bd 57 02 be be 8b 36 07 3e
       0.01648879 -0.08660738 -0.3711116 0.132044
000060 a2 71 44 3d 5e af 31 3e 36 ca d3 3d 8f 64 5c 3d
       0.04795993 0.17352054 0.10341303 0.053806838
000070 3c 49 94 3c 7d df 4e 3c 71 c1 01 3c e0 44 0d 3e
       0.018101327 0.012626526 0.007919655 0.13795805
000080 6f b3 cc 3c 3f b1 66 be d9 fa 02 be 32 46 49 3d
       0.024987904 -0.22528552 -0.12791003 0.04913921
000090 68 34 b2 3d 0f 74 2e be d4 e7 9e 3c c9 ab 31 be
       0.08701402 -0.1703646 0.019397654 -0.17350687
0000a0 f9 a3 d1 3e 29 f2 97 bd e3 e4 d9 3c fa 48 53 bd
       0.40945414 -0.07419235 0.0265984 -0.051583268
0000b0 b1 ac 63 bd 29 8c 0f 3e 9b 43 96 bd 33 28 e7 bb
       -0.055584613 0.1401831 -0.073371135 -0.0070543527
0000c0 57 6b 1f 3e 61 75 09 be 45 48 20 be d0 df 7c 3c
       0.1556829 -0.13423683 -0.15652569 0.01543422
0000d0 92 09 62 bc 4a 9b 01 3d cd 8f 32 bd b0 4c b4 3d
       -0.013796227 0.031642236 -0.04359417 0.088036895
0000e0 20 31 9c 3d 07 8b e3 bb 50 d5 08 be db 0d 8d 3e
       0.07626557 -0.0069440636 -0.13362622 0.27549633
0000f0 dd 5c d5 bc cf 67 9b bd e9 2b f6 bd 6e 8f f7 bb
       -0.026045257 -0.07588159 -0.12020094 -0.00755494
000100 7d 3a a3 bd 37 dc be 3b 3b 90 8b 3e 77 cd 8f 3c
       -0.0797014 0.0058245915 0.27258477 0.017554028
000110 1f c3 64 bd a2 f6 55 bc ce 2b 23 bd fd 9d 25 bc
       -0.055850144 -0.01305929 -0.039836697 -0.010108468

b1_conv_1.weight f4 [8, 1, 3, 3]
000000 af 36 10 bb 95 cb 03 3d 8f 30 e3 bc d7 75 35 bc
       -0.002200525 0.032176573 -0.027733115 -0.0110754585
000010 cc 60 89 bb dc 32 05 be d5 ac 88 bc d1 20 22 be
       -0.0041924473 -0.13007683 -0.016683975 -0.15832831
000020 d0 69 e1 bd 22 94 31 bd 1d d1 48 bd 55 6b 27 bd
       -0.1100651 -0.04335416 -0.04902755 -0.040873844
000030 ae ee 4e bd 7f de 2f 3d d4 56 ff bd 6e 00 0c bd
       -0.05052059 0.0429368 -0.12467733 -0.034180097
000040 07 00 0b be 25 9f a6 bc 9f df 82 3d f4 f7 fb 3b
       -0.13574229 -0.020339558 0.063903086 0.0076894704
000050 4e 3e a8 bc 68 ba 36 3c c0 2e 30 be a3 00 5d bd
       -0.020537522 0.011152841 -0.17205334 -0.053955685
000060 d0 90 f6 bc b4 40 92 bd f0 55 46 bd 7d 86 c0 bc
       -0.030098349 -0.071412474 -0.0484218 -0.023501629
000070 15 65 bd 3c 9a 82 16 3e 12 63 40 bd bd 92 e2 bd
       0.023119489 0.14698258 -0.04696948 -0.11063144
000080 59 35 fc bb ee 32 96 3b 0d 0e 77 bd b6 a3 6a bd
       -0.007696789 0.004583708 -0.060316134 -0.057285033
000090 bb 08 80 3d 9a e5 9c 3d 5a 0d 82 3c 68 43 84 3d
       0.06251665 0.076609805 0.015875507 0.06458169
0000a0 3b 5a 75 bd bd 62 c9 3d 88 d9 ad 3c 6c c0 13 3e
       -0.059900504 0.09833286 0.021221891 0.14428872
0000b0 b4 a2 55 b9 c2 67 02 3b ad 85 76 bc 9f d9 f1 bc
       -0.00020373875 0.001989827 -0.015046519 -0.029522715
0000c0 78 2e 27 3d 7b 6d e8 39 8c fe 1c be 79 b8 cc bc
       0.0408158 0.00044332058 -0.15331477 -0.024990307
0000d0 8c 4f b2 bd 98 f9 b9 bd aa 04 a3 3d f9 63 cc 3d
       -0.087065786 -0.09080809 0.07959874 0.09980006
0000e0 16 63 ed 3c 8b 87 08 bd 8a 75 2b 3d e7 73 97 3d
       0.028977912 -0.03333239 0.04186014 0.073951535
0000f0 bc 65 cd bd 09 87 47 bd ab 55 50 3d 9f 56 8c bc
       -0.1002917 -0.048712764 0.05086295 -0.017131148
000100 47 5c 8c bc b7 fa 44 3d 2d f5 1a bd 5c 01 76 3c
       -0.017133845 0.048090663 -0.037831474 0.015014973
000110 e6 7b 1e 3e d1 b3 39 bc 46 30 97 bc dc 8c 85 3c
       0.15476951 -0.0113343755 -0.018455636 0.016302519

b1_conv_2.weight f4 [8, 1, 3, 3]
000000 b7 92 af ba 2e 9d e8 bd 2b f3 29 bc f7 13 03 3d
       -0.0013395165 -0.11358105 -0.010372917 0.03200146
000010 5f 52 d8 3b 64 47 75 bc cc 54 ae 3b c5 1d 41 3c
       0.0066016163 -0.014970634 0.005320167 0.011786883
000020 e8 d7 81 3b f6 98 5c bc b6 80 c4 3b ac 7c fc bb
       0.0039625056 -0.013464203 0.005996789 -0.0077052917
000030 07 48 91 bb 64 f7 61 be 9f b1 14 bc 53 b2 0d bc
       -0.004433635 -0.22067028 -0.009075551 -0.008648473
000040 c0 ea 09 bc ee a4 a5 bb 9f 07 b0 3c 6d 65 89 3d
       -0.008417785 -0.0050550615 0.021488009 0.067087986
000050 c7 f9 14 bb 9f 9c 79 3d a3 25 ce bd 1b 5c ad bc
       -0.0022731887 0.06094038 -0.100657724 -0.021162083
000060 14 c7 4b 3b 5c 69 4c bc 8a e5 af bb 68 1b 3b bc
       0.0031094002 -0.0124762915 -0.0053679394 -0.011420108
000070 48 b7 c1 3c d7 0f 5c bc ed 58 0b 3c 19 c0 66 be
       0.023646966 -0.013431511 0.008505088 -0.22534217
000080 99 57 71 3c 34 ba 54 bc 12 78 81 3c 80 7f 46 bc
       0.014730358 -0.012983847 0.015804324 -0.012115359
000090 dc 0b 4b 3c 3a d2 cf ba bf 11 89 3b ce 11 43 3b
       0.012392964 -0.0015855499 0.0041830237 0.002976525
0000a0 3a e9 23 3e 8d b9 95 3a 3a 4f 89 3b ce aa 1d 3c
       0.16006938 0.0011423096 0.0041903527 0.009623243
0000b0 22 54 04 3c 6d c7 b9 3b 04 60 97 bb 52 8d a1 3b
       0.008076699 0.0056695254 -0.0046196003 0.004930177
0000c0 7e f2 a4 bc e2 52 1f 3e e8 a3 58 bb c1 d9 f3 3b
       -0.02013516 0.15558961 -0.003305668 0.00744173
0000d0 0c 40 fb 3a a8 35 1b 3c b8 b3 90 bd ef 11 16 bc
       0.0019168868 0.009473242 -0.07065529 -0.009159549
0000e0 ac cd 80 3c 06 15 d2 bd 4b f3 9a 3c 67 da 80 3a
       0.015723072 -0.10257916 0.01891484 0.0009830714
0000f0 a7 59 07 3a dd 92 af bc a6 bb 18 bc c3 3e a4 3c
       0.00051632005 -0.021432335 -0.009322083 0.020049458
000100 81 76 01 bd ad f3 c9 3c 86 72 9a bc e1 37 5c 3e
       -0.031607155 0.024652326 -0.018853437 0.21505691
000110 fc d1 f9 b9 ed 81 29 3c 2d c1 5e bc 79 22 5e 3c
       -0.00047649432 0.010345918 -0.013595861 0.013558024

b1_conv_3.weight f4 [8, 1, 3, 3]
000000 17 90 65 ba 8e 4d 58 bb 67 36 0e bb 69 89 3f bb
       -0.0008757128 -0.003300521 -0.0021699907 -0.002922619
000010 08 e8 cf 3d 33 5c 23 ba 59 41 4c ba 57 5f 18 bb
       0.10151678 -0.00062316953 -0.000779172 -0.0023250186
000020 29 0e 3a ba c4 c4 91 b8 66 75 98 bb 42 d5 12 ba
       -0.0007097447 -6.950789e-05 -0.004652667 -0.0005601236
000030 f6 9c e9 bb db 78 c4 3d fa 8b 29 bb 24 73 4b ba
       -0.007129307 0.09593364 -0.0025870786 -0.0007760993
000040 4a a0 c5 ba df 95 fa b9 8a 06 37 3a 04 e8 c8 ba
       -0.0015077677 -0.00047795378 0.00069818704 -0.0015327935
000050 22 f9 31 3a 8d a7 78 36 eb 95 b5 3d 07 1d bb 3a
       0.0006789138 3.7052407e-06 0.08866485 0.0014275619
000060 a6 78 93 3a 1c 3e 15 bb 7c 24 d3 3a b5 e7 06 bb
       0.0011251166 -0.0022772616 0.0016108896 -0.0020584885
000070 3c db df 3a 30 41 87 ba 1b d6 2d b8 a7 29 aa bd
       0.0017078887 -0.001031911 -4.1445815e-05 -0.08308726
000080 63 38 9c ba ad ad 39 ba bd b8 0c 3b 4c a1 9c ba
       -0.001191866 -0.00070830696 0.0021472417 -0.0011949926
000090 63 f4 e8 ba 75 18 e3 ba 1d d3 47 ba db d1 08 bb
       -0.0017773028 -0.0017326014 -0.0007622706 -0.0020877037
0000a0 fb 5c 01 3e 48 d5 11 bb dd 21 36 ba 6e 18 9f ba
       0.12633125 -0.002225237 -0.0006947795 -0.0012138018
0000b0 f6 25 f9 b9 7e 4b 50 bb ed b8 18 3a 55 c0 e3 ba
       -0.00047521264 -0.0031783278 0.0005825896 -0.0017376045
0000c0 1d 12 ad ba 7f 01 c1 bd 22 f5 a1 3a 59 d2 17 ba
       -0.0013204251 -0.094241135 0.001235638 -0.0005791537
0000d0 76 1f 5b 3b f5 b8 8e b9 75 58 31 bb fe 6a a1 3a
       0.00334355 -0.00027222154 -0.002706078 0.0012315211
0000e0 7e 3d 1f bb b0 f3 43 bb 21 a5 ab 3d 9e 30 ba bb
       -0.0024298127 -0.0029899888 0.08381105 -0.005682065
0000f0 43 72 91 ba 39 ab 8c 3a ae 09 e7 39 6e c4 60 3a
       -0.0011096675 0.0010732181 0.00044066965 0.0008574192
000100 f7 1b aa ba 98 e7 87 3a eb 8b d7 3a a6 42 1a 3e
       -0.0012978305 0.0010368703 0.0016444897 0.15064487
000110 7c 2f 2d 3a 06 b5 c8 3a 87 c4 1a bb e1 de 84 3a
       0.0006606502 0.0015312738 -0.0023615675 0.0010137224

p_conv_1.weight f4 [8, 8, 1, 1]
000000 39 bc 07 bd da 40 e1 bb 08 93 f0 3b 68 8d a0 3d
       -0.033138487 -0.006874186 0.0073417462 0.07839471
000010 ec 82 c3 bb af 98 2b bd a9 55 7d bd e8 d7 88 bd
       -0.005966535 -0.041893657 -0.06184927 -0.06681806
000020 bf 58 18 3e 6f 39 c5 bc 52 39 0d 3e c6 0a c4 3b
       0.14877604 -0.024075238 0.13791397 0.0059827296
000030 18 6c 3d bd 44 48 69 3d b3 4d 8e bd d4 b2 10 3e
       -0.046245664 0.056953683 -0.06948414 0.14130718
000040 b1 68 81 3b 01 0b 94 39 06 c6 c5 bd a8 01 42 bd
       0.0039492478 0.00028236958 -0.096569106 -0.04736486
000050 f1 3b 24 3c c9 ff 6d bd 54 83 83 3d c5 5c 1f bd
       0.010024057 -0.058105264 0.06421533 -0.03890683
000060 e0 03 1b be 8d 87 c2 3d 11 b8 37 3e 40 13 11 be
       -0.15138197 0.094985105 0.1794131 -0.141675
000070 f5 ef 38 3d cc a3 03 be b1 3f a4 3d 46 a8 20 bc
       0.045150716 -0.12855452 0.08019961 -0.0098057445
000080 dd 5e 81 bd f6 65 8e bd 52 60 b5 3c 08 4a 1c bd
       -0.06316922 -0.06953041 0.022140656 -0.03815654
000090 89 ac 9e bd 89 e6 12 be 6a cf 12 3d ca f3 13 be
       -0.07747752 -0.14345755 0.035842337 -0.14448467
0000a0 06 cd 47 bd 92 db d7 3d ca 68 32 3c 0e 04 16 3d
       -0.04877951 0.105399266 0.0108892415 0.03662496
0000b0 8a 4f b4 3c 5a 47 36 3e 66 10 6e 3c 72 13 d1 bd
       0.022010583 0.17800656 0.014530277 -0.10208787
0000c0 b1 cf 01 3d 51 46 e2 bb a7 d2 7d bd aa 2b f6 bb
       0.03169221 -0.006905355 -0.06196847 -0.0075125294
0000d0 8d 88 8a 3b 4e ee 84 bd f2 18 f1 3d 67 be c8 bc
       0.004227704 -0.064907655 0.11772336 -0.024504853
0000e0 69 24 1f 3e da 5f 38 3c a0 bc 1a be 02 4e fc 3d
       0.15541233 0.011253322 -0.15111017 0.12319566
0000f0 6b 10 9d 3c 0b 4e fa b8 5a e1 77 bd 01 9a 5e bd
       0.019172868 -0.000119354656 -0.060517646 -0.05434609

p_conv_2.weight f4 [8, 8, 1, 1]
000000 57 ac f3 bc 87 4e 38 3d db 9a a2 bd 84 77 53 3d
       -0.029745264 0.044996765 -0.079396926 0.05162765
000010 a0 05 3d bd da 1b 3d 3c 63 40 95 bd 7b af 45 3d
       -0.046147943 0.011542285 -0.072876714 0.048263054
000020 51 71 80 3d a5 7c 92 3d e0 c9 4e bc 0b 98 15 3d
       0.062716134 0.0715268 -0.012621373 0.036521953
000030 6a c0 a6 bd 1d 53 4c 3d 05 8d 16 bd db d6 61 3d
       -0.08142169 0.04988395 -0.03675558 0.055136543
000040 b6 82 38 bc 76 2b 16 bd 7d ff a9 3d eb 6a aa bc
       -0.011261633 -0.03666254 0.08300684 -0.020802936
000050 b0 ab eb 3c e0 09 4a 3d 7f f7 a5 3d a1 f9 ba 3b
       0.02876839 0.049325824 0.08103847 0.0057060276
000060 79 ec c2 3c 9b 13 57 3d a0 67 ce bd 2b 39 09 3d
       0.0237944 0.05250893 -0.10078359 0.033501785
000070 57 53 07 3c c6 83 db bb 02 51 cc 3d 39 9e 8d bd
       0.008259616 -0.006699058 0.099763885 -0.06914944
000080 89 9f 95 bb 5d 92 d0 bd 99 87 38 3c 37 fe 08 3e
       -0.004566137 -0.101841666 0.011262798 0.13378225
000090 4b ea a4 3d 1b 2c 57 bd 62 96 5d 3d fd 30 01 be
       0.080525 -0.052532297 0.054098494 -0.12616344
0000a0 0b a7 82 3c 39 34 a5 bc 69 cb a6 bd f1 32 25 bd
       0.015948793 -0.020166503 -0.08144266 -0.040331785
0000b0 30 be d2 3d 2a 8f c1 3c 5a b9 69 bb ae ac 9b bd
       0.10290182 0.023627836 -0.0035663457 -0.076012954
0000c0 b4 b1 ca bc a5 25 cc 3d fd 46 49 3c 1b 8b 32 3c
       -0.024742939 0.099681176 0.012284991 0.010897423
0000d0 f5 8d 58 bd 7d d6 d4 39 32 a1 d9 bc c7 2c e5 bc
       -0.052869756 0.00040595597 -0.026566122 -0.027975453
0000e0 63 fc 5b bc a8 e7 c2 3d 3b 79 ac bc 3d 7c 2d be
       -0.013426873 0.09516841 -0.021053901 -0.16941924
0000f0 be 61 b8 bd 65 01 32 3d 35 a9 8f bd 14 32 17 3e
       -0.09003018 0.04345836 -0.070146956 0.14765197

p_conv_3.weight f4 [8, 8, 1, 1]
000000 a3 67 18 3c 00 fe 59 bd 96 24 30 bd 9f ab 19 3d
       0.009302053 -0.05322075 -0.04300364 0.037517186
000010 d7 d1 b2 3d c3 90 8b bc ac 01 ef bb ed 20 ea bc
       0.0873143 -0.017036801 -0.0072939005 -0.028580153
000020 a7 52 6e bd 29 6c b9 3d 60 11 26 3d 34 70 22 bd
       -0.058184292 0.09053833 0.040543914 -0.039657786
000030 d7 de 98 bd b1 7f 6b 3c eb aa ca 3b 85 52 a6 3d
       -0.07464378 0.014373706 0.006184926 0.08121208
000040 73 6f c8 bc 05 fa 53 bd 7d 34 da 3c be e3 2b bd
       -0.024467206 -0.05175211 0.026636356 -0.04196524
000050 78 05 a9 bc f6 d0 b9 3c fd f1 90 bc 8d d1 1a 3e
       -0.02063249 0.022682648 -0.017693514 0.15119
000060 31 73 e9 3c c5 20 8c bd d0 80 f4 bc 52 bc 34 3d
       0.02849731 -0.06842188 -0.029846579 0.04412491
000070 0f cc d8 3d d8 54 1a bd 65 c3 0d 3c 45 53 e3 bc
       0.10585796 -0.03767857 0.008652543 -0.027749667
000080 1c e5 76 3d f6 eb 23 bb ce 6a 97 3c e8 46 3b 3d
       0.06027709 -0.002501247 0.018483546 0.04572192
000090 a8 8e 87 3d c1 d1 e6 bd 26 98 a2 bc 96 17 11 bd
       0.066190064 -0.11270476 -0.01984794 -0.035422884
0000a0 1b 62 d4 3d 39 4e 55 bd 4d c0 4b 3d ae c3 3c 3c
       0.10370275 -0.052076552 0.04974394 0.011521263
0000b0 99 c9 d2 3a c4 a4 82 3b 02 1a 66 3d b6 b0 36 ba
       0.0016081809 0.0039869267 0.056177147 -0.0006969081
0000c0 48 ae b8 bb d4 18 10 3d 72 ff 1b 3d 89 02 1d bd
       -0.0056360103 0.035179928 0.03808541 -0.038332496
0000d0 57 c9 68 bc 24 82 54 bb 1c c9 88 3b 2b a2 f2 3d
       -0.014208159 -0.0032426203 0.0041743647 0.11847337
0000e0 69 17 2a 3d 55 51 a7 3d 45 9c 3e 3c b6 a2 58 bc
       0.041526232 0.0816981 0.011633937 -0.013222387
0000f0 ae 8d c1 bc 14 f8 45 bd 0a 1a 90 3a 1c 07 e8 bb
       -0.023627128 -0.04833229 0.0010994088 -0.0070809256

output_Y.weight f4 [1, 8, 3, 3]
000000 59 88 15 3e db c0 0c 3e 02 14 80 bd 0a de 1c 3e
       0.14602794 0.13745444 -0.06253816 0.15319076
000010 1c 72 29 bf 05 b7 05 3d 8f 1c 51 3d 37 4d 27 be
       -0.6618974 0.032645244 0.051052626 -0.16338049
000020 65 d6 45 3d c0 c9 5b be 27 98 00 be da 0b 03 be
       0.048300166 -0.2146368 -0.12558042 -0.1279749
000030 90 47 d8 bd d9 87 97 3f c2 a8 23 3d 72 32 1b be
       -0.105605245 1.1838332 0.039955862 -0.15155962
000040 68 b8 06 be 58 1c 23 3e 12 13 1e be ea f7 84 be
       -0.13156283 0.15928781 -0.15436962 -0.25970393
000050 1a c3 5e be 36 be 55 bd aa 57 51 3f b9 69 85 bd
       -0.21754113 -0.052183352 0.8177439 -0.065143056
000060 1f d9 82 be d9 ae 2b bc 75 aa 27 be 50 6e ee 3d
       -0.25556275 -0.010478699 -0.16373618 0.11642134
000070 7a b1 44 3e 5e bd 84 3e 2c 6a c2 3d aa fb 3a bf
       0.19208327 0.25925726 0.09492907 -0.7304026
000080 ff 91 8e be 30 b3 d7 3d 81 69 84 3c 4e 93 17 3d
       -0.2784576 0.10532224 0.01616359 0.037005715
000090 49 87 0a 3e 35 4f c4 bb 96 7d 31 3e 2e e8 fd bc
       0.1352817 -0.0059908875 0.17333063 -0.030994501
0000a0 b2 24 5a bf cb 51 96 3e 0e dc 4d 3e f5 c7 51 3e
       -0.8521224 0.29359278 0.20103475 0.20486434
0000b0 dc 0e ab bd ac b6 f9 bd 1b 52 8e bd fe 29 79 3d
       -0.083524436 -0.12193045 -0.06949254 0.060831062
0000c0 7d 6b 4c 3d 37 78 b2 3e bb 3f 02 be 78 f4 09 3e
       0.049907196 0.34857342 -0.12719624 0.13472164
0000d0 97 85 0e 3e 3a cd b5 be c2 03 3b bc 39 4b a8 bd
       0.13918148 -0.35508138 -0.01141447 -0.082174726
0000e0 f9 b7 d2 bd 0d 5e 93 be b4 a7 0d 3f c4 83 84 3c
       -0.10288996 -0.28782693 0.5533402 0.016176112
0000f0 ab de 6d bd c8 e2 0c 3d ef b2 e3 bd 32 06 fb bd
       -0.05807368 0.034395963 -0.11118113 -0.12257041
000100 35 d3 39 bd 88 af bd 3d 8a 85 ce bd 00 d2 25 3e
       -0.04536744 0.092619956 -0.10084064 0.1619339
000110 83 ea 45 3d b7 32 82 bd 06 0c c7 3e b2 a9 fb bd
       0.04831935 -0.06357329 0.3887636 -0.12288226
