model/single_noDSC_v6_ch6_1.pt (torch_old, 3159 bytes, 8 tensors)

input_Y.weight f4 [6, 1, 3, 3]
0.040857993 -0.17128061 0.003976792 -0.18771236 0.49112007 -0.056215554 0.03228335 -0.11845808
0.015431447 -0.022917254 -0.033479124 -0.11883453 0.12645386 -0.11863737 -0.12050751 0.03151049
0.22702697 -0.0019456029 -0.019788342 0.30101413 0.0741506 0.00807694 -0.13495617 -0.14141887
0.04744218 -0.09737592 -0.013285227 -0.019994643 0.1683293 0.043251287 0.20148134 -0.60534173
0.026083684 -0.017558813 0.11183121 0.016323531 -0.027496614 -0.034228686 -0.038600765 -0.03951874
-0.12354208 0.38708788 -0.015397223 -0.040303115 0.014907312 -0.016352443 -0.014101284 0.011144945
-0.1119471 -0.2892879 0.2873565 0.0058604805 0.014167124 0.053502314
00000000: b65a 273d 2f64 2fbe c04f 823b ab37 40be
00000010: 1774 fb3e 4842 66bd 8c3b 043d 269a f2bd
00000020: 2ed4 7c3c f7bc bbbc 6821 09bd 855f f3bd
00000030: 1f7d 013e 26f8 f2bd a4cc f6bd 2511 013d
00000040: c279 683e 9a03 ffba 291b a2bc 861e 9a3e
00000050: 45dc 973d 2455 043c f331 0abe 1cd0 10be
00000060: bb52 423d 076d c7bd 48aa 59bc cecb a3bc
00000070: 845e 2c3e 4328 313d 2051 4e3e adf7 1abf
00000080: 73ad d53c 80d7 8fbc c307 e53d edb8 853c
00000090: 9440 e1bc 6133 0cbd d61b 1ebd 67de 21bd
000000a0: a103 fdbd 6230 c63e a244 7cbc e114 25bd
000000b0: cc3d 743c 8ff5 85bc 1209 67bc 4a99 363c
000000c0: 8544 e5bd 8b1d 94be 6420 933e 4609 c03b
000000d0: 3a1d 683c 3e25 5b3d

b1_conv_1.weight f4 [6, 1, 3, 3]
-0.084886186 -0.11050011 -0.042136244 -0.092498325 0.07542065 -0.018685648 -0.05174921 -0.0708849
-0.021248266 0.07088381 0.04242002 -0.01272975 0.07857608 0.16060363 0.0353279 -0.00043104222
0.0445025 0.017253999 -0.039518993 -0.04683187 -0.019506393 -0.15298957 -0.11667586 -0.06661385
-0.06552972 -0.035024002 -0.010180732 -0.02022107 0.0079393005 -0.010581691 -0.015210149 -0.33632863
0.011882982 -0.018650878 0.012987043 -0.0111313695 0.044928342 -0.027140781 -0.008049661 0.23737387
-0.009713132 -0.049486037 0.035809062 -0.031147785 -0.019094985 0.08790381 0.0650984 0.01474336
0.19873807 -0.008667846 -0.057367686 0.09744377 0.0400876 0.010156051
00000000: cfd8 adbd e24d e2bd 0e97 2cbd c36f bdbd
00000010: 2476 9a3d a512 99bc fbf6 53bd 1a2c 91bd
00000020: d810 aebc 882b 913d 9dc0 2d3d 7190 50bc
00000030: 7fec a03d 4775 243e fdb3 103d 82fd e1b9
00000040: 4148 363d 4258 8d3c abde 21bd c6d2 3fbd
00000050: dfcb 9fbc 4ca9 1cbe c1f3 eebd d86c 88bd
00000060: 7234 86bd 5475 0fbd 16cd 26bc a8a6 a5bc
00000070: d713 023c d45e 2dbc fd33 79bc 4433 acbe
00000080: d7b0 423c bac9 98bc 9bc7 543c 5960 36bc
00000090: c806 383d 5856 debc bae2 03bc 2312 733e
000000a0: d423 1fbc dfb1 4abd 86ac 123d a429 ffbc
000000b0: 166d 9cbc ea06 b43d 4f52 853d 228e 713c
000000c0: fe81 4b3e 9503 0ebc 61fa 6abd 9990 c73d
000000d0: e532 243d 9165 263c

b1_conv_2.weight f4 [6, 1, 3, 3]
-0.000874243 -0.018070342 -0.0053550457 -0.03185215 0.22627746 -0.04999815 0.006817512 -0.035033137
-0.00060738955 -0.0109688 0.042587496 -0.010487069 0.036832314 -0.2581953 0.037280835 -0.00686236
0.027964402 -0.0060447487 0.014174677 0.032996546 0.03574644 -0.04061793 -0.091187775 -0.116443664
0.011642658 0.021549214 0.019912181 -0.005273861 0.020023622 -0.0067739137 -0.039443407 -0.20369187
-0.024847705 0.0033962035 0.029972557 0.013307221 0.0028427658 0.027478542 -0.005046054 -0.0005261173
-0.16088602 0.008070611 -0.0095572295 0.013981229 -0.004687641 -0.012310321 -0.0065329815 -0.009868298
-0.004460119 -0.13745372 -0.0075384825 -0.01543635 -0.0022272638 -0.021582345
00000000: 742d 65ba 4108 94bc 6179 afbb 6677 02bd
00000010: 47b5 673e dcca 4cbd 7065 df3b e87e 0fbd
00000020: 3939 1fba 7bb6 33bc 3a70 2e3d f5d1 2bbc
00000030: 7bdd 163d 2d32 84be cab3 183d a6dd e0bb
00000040: 9a15 e53c 0713 c6bb e83c 683c 6327 073d
00000050: dc6a 123d fd5e 26bd a8c0 babd 047a eebd
00000060: d9c0 3e3c fa87 b03c df1e a33c 5ad0 acbb
00000070: 9408 a43c b5f7 ddbb 698f 21bd 9a94 50be
00000080: 6a8d cbbc d792 5e3b 0289 f53c 8806 5a3c
00000090: b24d 3a3b ae1a e13c 5e59 a5bb 22eb 09ba
000000a0: 4ebf 24be 993a 043c ed95 1cbc 8611 653c
000000b0: c89a 99bb 3bb1 49bc 9f12 d6bb a4ae 21bc
000000c0: 3126 92bb abc0 0cbe 6005 f7bb bfe8 7cbc
000000d0: 49f7 11bb 75cd b0bc

b1_conv_3.weight f4 [6, 1, 3, 3]
-0.0011084318 0.00041432295 -0.0015511384 0.004687294 -0.1055065 0.003774395 -0.0017088219 -0.0010819532
-0.0016340583 0.0021939438 0.0027072702 0.0019580582 0.0027503527 -0.117825024 0.0012241728 0.002318148
0.0036646638 0.001734931 -0.00045272734 -0.0009235308 -8.2541796e-05 -0.0011279981 0.12288282 -0.0034484398
-0.00017737123 -0.0010110224 -0.0001645814 0.0012981263 0.00516755 0.0017113038 0.0034307488 -0.10355652
0.0060361363 0.0020561262 0.0058787405 0.00069167913 0.003275557 0.007853906 0.0010735043 0.00031441989
-0.13977838 -0.0012990576 0.0051144348 0.011855814 0.0038354762 -0.000976858 0.0038181574 -0.00027658272
0.0012544648 -0.12702581 0.00013534185 -0.0006070514 0.0026243282 -0.0005796968
00000000: cd48 91ba 7c39 d939 914f cbba df97 993b
00000010: cb13 d8bd d75b 773b 8cfa dfba 53d0 8dba
00000020: e62d d6ba 45c8 0f3b 756c 313b c452 003b
00000030: 433f 343b 3f4e f1bd 6c74 a03a 12ec 173b
00000040: db2a 703b a066 e33a 095c edb9 1a19 72ba
00000050: 4a1a adb8 56d9 93ba fda9 fb3d 38ff 61bb
00000060: bafc 39b9 4884 84ba 7c93 2cb9 e425 aa3a
00000070: 8d54 a93b d44d e03a 6ad6 603b 7115 d4bd
00000080: c8ca c53b 13c0 063b 73a2 c03b cd51 353a
00000090: baaa 563b abad 003c d4b4 8c3a b9d8 a439
000000a0: 1022 0fbe 2445 aaba fd96 a73b e33e 423c
000000b0: 9d5c 7b3b ea09 80ba 0d3a 7a3b 4e02 91b9
000000c0: db6c a43a 0e13 02be 8dea 0d39 8822 1fba
000000d0: ecfc 2b3b cbf6 17ba

p_conv_1.weight f4 [6, 6, 1, 1]
0.0941733 0.1480654 -0.19731331 0.038746327 -0.18562357 0.1777304 0.011558607 -0.046264984
0.045902077 0.20960113 0.15821992 -0.14551842 0.023238529 0.08834183 -0.097674556 0.09684411
0.087461196 -0.0011848257 0.10547877 -0.036737017 0.032210246 -0.13436133 -0.095348254 -0.055246808
0.04683442 -0.13692333 -0.011438744 -0.02886731 -0.07626036 0.081092745 0.16490522 0.04110203
0.024025282 0.030220529 -0.070833005 0.09997114
00000000: eedd c03d 759e 173e 800c 4abe 78b4 1e3d
00000010: 1b14 3ebe f5fe 353e 5060 3d3c 5a80 3dbd
00000020: d103 3c3d aea1 563e 6704 223e c802 15be
00000030: ba5e be3c 90ec b43d 9909 c8bd 3456 c63d
00000040: db1e b33d 274c 9bba 4105 d83d 8e79 16bd
00000050: e4ee 033d 0496 09be f245 c3bd 7a4a 62bd
00000060: 73d5 3f3d a135 0cbe 9269 3bbc 237b ecbc
00000070: 642e 9cbd f413 a63d eadc 283e 9a5a 283d
00000080: abd0 c43c 0b91 f73c e510 91bd abbd cc3d

p_conv_2.weight f4 [6, 6, 1, 1]
-0.02225925 0.12461757 -0.022901786 0.0049753133 0.008216441 0.17187423 0.14814007 -0.08708708
-0.05417491 0.01825023 -0.004418441 0.10228757 -0.08370451 0.031765044 0.02856539 -0.13198166
0.05250526 0.049104054 -0.05527788 0.014815467 0.047010653 -0.015056455 -0.10390433 0.029385027
0.014102424 -0.025265241 -0.11455782 0.12961394 -0.046656337 0.048761718 0.10113328 -0.16904229
-0.009090921 0.059870366 -0.026212042 -0.15139563
00000000: 0859 b6bc 7f37 ff3d 879c bbbc f407 a33b
00000010: 409e 063c ccff 2f3e 08b2 173e b65a b2bd
00000020: 83e6 5dbd 8281 953c 92c8 90bb 257c d13d
00000030: 456d abbd 101c 023d f701 ea3c 3326 07be
00000040: c10f 573d 5521 493d 0f6b 62bd 93bc 723c
00000050: 3e8e 403d 59af 76bc cbcb d4bd deb8 f03c
00000060: da0d 673c 0df9 cebc 4a9d eabd 84b9 043e
00000070: b71a 3fbd 5eba 473d f71e cf3d 6c19 2dbe
00000080: 16f2 14bc a13a 753d a3ba d6bc 7507 1bbe

p_conv_3.weight f4 [6, 6, 1, 1]
0.037706763 -0.103323355 -0.0028759856 0.012930601 0.02855853 -0.13066061 0.05987403 0.020191474
0.120963186 -0.018523682 -0.001602603 0.08078611 0.0020513108 0.066840746 0.019247431 -0.013043409
-0.14664164 -0.017403957 -0.15294057 0.09740467 0.046348434 -0.012233804 0.00058178755 0.05014126
-0.009800187 -0.0079764975 -0.010455942 -0.10965352 0.060226995 0.022508005 -0.02159225 0.03237722
0.07267058 0.09151125 0.07930033 0.020172616
00000000: 6872 1a3d 329b d3bd 087b 3cbb dfda 533c
00000010: 94f3 e93c e5cb 05be 793e 753d 9768 a53c
00000020: 8cbb f73d fabe 97bc 6f0e d2ba 3073 a53d
00000030: 496f 063b cde3 883d caac 9d3c 06b4 55bc
00000040: 3a29 16be be92 8ebc 749c 1cbe 1a7c c73d
00000050: dbd7 3d3d 4b70 48bc 1a83 183a ec60 4d3d
00000060: f790 20bc dbaf 02bc 664f 2bbc 0692 e0bd
00000070: 95b0 763d b562 b83c 3be2 b0bc fa9d 043d
00000080: 50d4 943d 406a bb3d 3668 a23d 0b41 a53c

output_Y.weight f4 [1, 6, 3, 3]
0.094151765 0.21068527 0.06887305 -0.03186914 -1.5990132 0.3149734 0.24477777 0.4784306
0.20313454 -0.22259049 0.20524628 -0.11030316 0.05473268 0.9161853 -0.26192084 -0.2351237
0.0025537766 -0.24715607 0.077130996 -0.2571958 -0.11275074 0.75640607 0.024425946 0.22049753
-0.21137379 -0.43208227 -0.012588618 -0.2077916 -0.07390847 -0.026092032 -0.077389725 1.3491068
-0.30845228 -0.30792513 -0.26355937 -0.16984455 -0.065977104 0.1685972 0.08649822 -0.3371517
0.38331372 0.11388101 -0.15076515 -0.26021537 -0.03668025 0.078563176 -0.18768542 -0.4507199
0.09760072 0.54636824 -0.33738104 0.26176262 0.16237779 -0.117262185
00000000: a4d2 c03d e1bd 573e 500d 8d3d 3789 02bd
00000010: 77ac ccbf 3244 a13e 06a7 7a3e dbf4 f43e
00000020: 8002 503e c3ee 63be 152c 523e a0e6 e1bd
00000030: 602f 603d 1f8b 6a3f 7d1a 86be 44c4 70be
00000040: 435d 273b 7b16 7dbe dbf6 9d3d 2baf 83be
00000050: dce9 e6bd d4a3 413f ec18 c83c 1bca 613e
00000060: 5f72 58be e339 ddbe 7e40 4ebc 52c7 54be
00000070: 535d 97bd f5be d5bc 817e 9ebd 88af ac3f
00000080: 75ed 9dbe 5da8 9dbe 41f1 86be bbeb 2dbe
00000090: 011f 87bd bfa4 2c3e fb25 b13d 269f acbe
000000a0: b241 c43e 723a e93d 2e62 1abe f33a 85be
000000b0: 083e 16bd bbe5 a03d 9b30 40be c2c4 e6be
000000c0: e3e2 c73d cade 0b3f 35bd acbe c005 863e
000000d0: 5d46 263e 2827 f0bd
