model/single_noDSC_v6_ch14_1.pt (torch_old, 6519 bytes, 8 tensors)

input_Y.weight f4 [14, 1, 3, 3]
0	0xbdb37b54	-0.08763757
1	0xbd353222	-0.044237264
2	0x3a7a5eb6	0.0009550856
3	0x3e7285b3	0.23683815
4	0xbda7198c	-0.081591696
5	0x3c0b79c8	0.008512922
6	0xbcd44cd6	-0.025915544
7	0x3d1a3d3b	0.03765605
8	0xbbb66aa5	-0.0055669122
9	0x3d0db96b	0.034600656
10	0xbd8599c7	-0.06523471
11	0x3da47e49	0.080318995
12	0xbd84cb30	-0.064840674
13	0xbe684a19	-0.22684516
14	0x3d27d51f	0.040974732
15	0x3d71da7d	0.059046257
16	0x3d7b4fdd	0.06135546
17	0x3cf9aa54	0.030476727
18	0x3c2ca6fc	0.010537859
19	0xbdae28f2	-0.085039034
20	0x3d75d14d	0.060014058
21	0x3ddff1b7	0.10934775
22	0xbe673891	-0.22580172
23	0xbddf960a	-0.109172896
24	0x3e25ffe5	0.16210897
25	0x3d6c3fd5	0.057678062
26	0x3c1bae94	0.009502072
27	0xbb9c7078	-0.0047741495
28	0x3db7a308	0.089666426
29	0x3e2e3478	0.17012203
30	0xbd5a0c61	-0.05323446
31	0xbe0c9f52	-0.13732651
32	0x3dbd7916	0.09251611
33	0xbc9bfe12	-0.019042049
34	0xbded2a1f	-0.115802996
35	0xbc9c1b93	-0.019056117
36	0xbe08fb6f	-0.13377164
37	0x3d37beb5	0.044859607
38	0x3d7c7a7b	0.061640244
39	0x3cd5b401	0.02608681
40	0x3e425da7	0.18981038
41	0xbdced86e	-0.100998744
42	0x3d7754e0	0.060383677
43	0xbdc8650e	-0.097849
44	0xbd238ec1	-0.039931063
45	0x3c93b9f8	0.018033013
46	0xbdf122f6	-0.117742464
47	0xbcba8cb2	-0.022772167
48	0xbe144433	-0.14479141
49	0xbd532fd9	-0.051559303
50	0x3d8ec73a	0.06971593
51	0xbd0db12b	-0.03459279
52	0x3deb4810	0.11488354
53	0x3e3356da	0.175136
54	0x3d3e5ffa	0.04647825
55	0xbdf2c69e	-0.118542895
56	0x3c04dc3f	0.008109151
57	0xbdc193d9	-0.09452028
58	0x3e93db8d	0.2887844
59	0xbd9fc314	-0.0780088
60	0x3acee928	0.0015786039
61	0xbd857956	-0.065172836
62	0x3c436eff	0.011928319
63	0x3cc1212d	0.02357539
64	0x3d287f3b	0.04113696
65	0x3d350216	0.044191442
66	0x3cb8d318	0.022561595
67	0xbd8ac157	-0.06775158
68	0xbcf72f28	-0.030173853
69	0x3d4f423e	0.050600283
70	0xbd27bdf9	-0.040952656
71	0xbe22edd8	-0.15911043
72	0x3dc464bb	0.09589525
73	0x3dfa5954	0.12224069
74	0x3cbec989	0.023289459
75	0x3d77f8aa	0.06053988
76	0xbceda175	-0.029007653
77	0xbe3083e9	-0.1723782
78	0x3d5a839c	0.05334817
79	0xbdf92e20	-0.12167001
80	0xbd354471	-0.044254724
81	0x3df23cc3	0.11827996
82	0xbd45c164	-0.048280135
83	0xbda0b65d	-0.07847283
84	0xbcc89288	-0.024483934
85	0xbe3ea94b	-0.18619268
86	0x3ded77ac	0.11595091
87	0xbd9bb276	-0.07602398
88	0x3e00f2c1	0.12592603
89	0x3caed75c	0.021342926
90	0xbcfdb068	-0.030967906
91	0xbca96760	-0.020679176
92	0xbd112155	-0.03543218
93	0xbcaa4392	-0.020784173
94	0x3d431964	0.047631636
95	0x3c99d198	0.0187767
96	0xbd2e3078	-0.042526692
97	0x3d18269a	0.03714619
98	0x3e0e2b4b	0.13883702
99	0xbb793b9e	-0.003802992
100	0x3dc701b4	0.09717122
101	0x3ced7ba5	0.028989622
102	0x3c1a61f3	0.009422767
103	0xbe873316	-0.26406163
104	0x3dabfeaf	0.083981864
105	0xbae687f3	-0.0017588123
106	0x3ccef43f	0.02526295
107	0xbd07a322	-0.03311456
108	0xbbb300a8	-0.0054627247
109	0x3d00c368	0.031436354
110	0xbd0035e6	-0.0313014
111	0x3c8b38b3	0.01699481
112	0x3e49dbd0	0.19712758
113	0xbd1f5773	-0.038901757
114	0xbcdd252c	-0.026995264
115	0xbd3e68f0	-0.046486795
116	0xbda005a5	-0.078135766
117	0xbd40fad6	-0.047114216
118	0x3dfb4a2a	0.12270005
119	0xbca6c8ee	-0.020359483
120	0x3dd89eee	0.105771884
121	0xbe954f72	-0.29162174
122	0x3daa82c2	0.08325721
123	0xbc211912	-0.009832637
124	0x3d78898d	0.060678054
125	0xbbf16627	-0.007366914

b1_conv_1.weight f4 [14, 1, 3, 3]
0	0x3baf6f1c	0.0053538214
1	0xbbb9c141	-0.0056687896
2	0x3cdf4b57	0.027257605
3	0x3b31ec9e	0.0027149091
4	0xbd117206	-0.03550913
5	0x3e21d3aa	0.158034
6	0xbc52a037	-0.012855581
7	0xbd31f3d0	-0.04344541
8	0xbd6dc828	-0.058052212
9	0xbbcd88fd	-0.006272434
10	0x3cbc3a15	0.022976914
11	0x3bf7d516	0.0075632436
12	0x3cd9dab2	0.02659354
13	0x3e007857	0.12545906
14	0x3d154e1d	0.036451448
15	0x3b2a62c8	0.002599882
16	0x3d2420d7	0.04007038
17	0x3b734096	0.0037117354
18	0x3ce345a3	0.027743166
19	0x3d909878	0.07060331
20	0x3da0c183	0.078494094
21	0x3ca47145	0.020073542
22	0x3d57218e	0.052522235
23	0x3dca3bc5	0.098746814
24	0xbc152012	-0.009101884
25	0x3c440b54	0.011965591
26	0x3c993084	0.018699892
27	0xbc873699	-0.016505526
28	0xbc6761e8	-0.014122464
29	0x3ca543a8	0.020173863
30	0xbd144e1c	-0.036207303
31	0xbe007854	-0.12545902
32	0xbca86457	-0.020555658
33	0x3bfa4202	0.0076372633
34	0xbd684d18	-0.056714147
35	0xbaea1df8	-0.0017861715
36	0x3ba0884b	0.00489906
37	0xbc18fc59	-0.009337508
38	0xbc978525	-0.018496105
39	0xbc41773c	-0.011808213
40	0xbdfcbda1	-0.12340856
41	0xbcf2b2e7	-0.029626323
42	0xbc9bf4d0	-0.019037634
43	0xbcd4715f	-0.025932966
44	0x3cde8483	0.027162796
45	0x3c4249c2	0.011858406
46	0x3d0f8361	0.035037402
47	0x3b43fbda	0.0029904754
48	0x3ce01d7b	0.027357807
49	0x3e1ada80	0.15122414
50	0x3cde68c5	0.027149567
51	0xbc410fd9	-0.0117835635
52	0x3d035d2f	0.03207129
53	0xbc8d95f6	-0.017283421
54	0x3cca21d0	0.024674326
55	0x3d2c5ac8	0.042078763
56	0x3c722f97	0.014781854
57	0x3d388fd4	0.04505904
58	0x3b035682	0.0020040576
59	0x3d6173d1	0.05504209
60	0x3ca5e517	0.02025084
61	0x3d7a49a8	0.0611054
62	0x3c2ade38	0.010428958
63	0xbd20b4c5	-0.039234895
64	0xbd9f852b	-0.07789072
65	0x3d1b9bd7	0.037990417
66	0xbd902465	-0.07038192
67	0xbce215cf	-0.02759829
68	0x3c07b48f	0.008282795
69	0x3cd05c52	0.025434647
70	0xbbabadd0	-0.005239226
71	0x3bc5d05f	0.0060368027
72	0x3bf91f95	0.007602642
73	0xbbdcadf7	-0.0067346054
74	0xbce247f3	-0.027622199
75	0xbd01fe67	-0.031736758
76	0xbdacf835	-0.08445779
77	0xbd16a8fa	-0.036782242
78	0xbd135675	-0.035971124
79	0xbd5142ee	-0.05108922
80	0xbd16c856	-0.03681215
81	0x3d93248d	0.07184706
82	0x3cf319c8	0.02967538
83	0x3d23718c	0.03990321
84	0x3cda83ea	0.02667423
85	0xbce3dfa4	-0.027816601
86	0x3ca7e117	0.020493073
87	0x3d0161f0	0.03158754
88	0x3c6a172e	0.014287753
89	0x3d851a78	0.06499189
90	0x3daa6ffe	0.08322142
91	0x3d916e2b	0.07101091
92	0xbd7bc2d8	-0.061465114
93	0x3d4dd50a	0.050251998
94	0x3bb5c356	0.0055469675
95	0xbc99ab20	-0.018758357
96	0xbd4eafa4	-0.050460473
97	0xbc8cbd98	-0.01718025
98	0xbc4fd8fc	-0.01268601
99	0xbd124805	-0.035713214
100	0xbc8c2c8b	-0.017111083
101	0xbc3c952b	-0.011510174
102	0xbda5ff03	-0.0810528
103	0x3dda9bdd	0.1067426
104	0xbd062b46	-0.032756113
105	0xbd820fd3	-0.063506745
106	0xbdbea4e9	-0.09308798
107	0xbd07bf2c	-0.0331413
108	0xbd3346bd	-0.043768633
109	0xbd62597d	-0.055261124
110	0x3b8b0588	0.0042426027
111	0xbd6577a2	-0.056022294
112	0xbd86ff6e	-0.06591688
113	0xbce1853d	-0.027529353
114	0xbb970110	-0.004608281
115	0xbd1a4c0a	-0.037670173
116	0x3c9a20f1	0.018814536
117	0x3d051352	0.03248913
118	0x3d1fc289	0.039003883
119	0x3c427a36	0.011869958
120	0x3d5f1edd	0.054472793
121	0x3cee32b0	0.029076904
122	0x3ca85246	0.020547044
123	0x3c9624b4	0.018328048
124	0x3ce81335	0.028329471
125	0x3b0a75c9	0.0021127334

b1_conv_2.weight f4 [14, 1, 3, 3]
0	0xbceeabb2	-0.029134605
1	0xba9dd07c	-0.0012040283
2	0x3bfc41cd	0.0076982738
3	0x3a6f3c50	0.0009126114
4	0xbdc7330b	-0.097265325
5	0xbbf5727f	-0.0074904556
6	0x3c0288da	0.007967198
7	0xbb865ec5	-0.004100653
8	0xbc9e1aa1	-0.019299807
9	0x3c104e75	0.008807768
10	0x3c1a4ce0	0.0094177425
11	0x3befd444	0.007319005
12	0x3c3572dd	0.011074749
13	0xbe1aaf64	-0.15105969
14	0x3b2e4b46	0.002659516
15	0x3be304ca	0.006928061
16	0x3a728a69	0.0009252192
17	0x3856f5b0	5.125039e-05
18	0x3a9e01c0	0.0012054965
19	0xb9f3698c	-0.0004642721
20	0xbc1e301d	-0.009655026
21	0x3bef44be	0.007301896
22	0xbe361b6d	-0.177839
23	0xbb4e780a	-0.0031504654
24	0xbc106ea3	-0.00881544
25	0xb9a144ea	-0.00030759658
26	0xbaa4b27c	-0.00125654
27	0xbc1581b6	-0.009125164
28	0xbd0838ac	-0.03325717
29	0xbc996fdf	-0.018730102
30	0xbcfec0d8	-0.031097814
31	0x3ded5142	0.11587764
32	0xbd5c2a0f	-0.053751048
33	0xbc935b3a	-0.017987836
34	0xbd3ed88a	-0.046593226
35	0xbca4bab6	-0.020108562
36	0x3cb2f0d5	0.021843353
37	0x3cdfe1b3	0.027329301
38	0x3bf3af48	0.0074366666
39	0x3ce23266	0.027611922
40	0xbd4e4c9b	-0.050366025
41	0x3ca961d7	0.020676536
42	0x3bb1e22a	0.005428572
43	0x3d143d74	0.03619142
44	0x3ce9e640	0.028552175
45	0x3cf9cac7	0.0304922
46	0x3d0ced55	0.034406025
47	0x3c47e8ec	0.012201529
48	0x3d1d666b	0.03842775
49	0xbd5731de	-0.05253779
50	0x3cecf9d0	0.028927714
51	0x3c218f13	0.009860772
52	0x3cbaa5a4	0.022784062
53	0x3cd05935	0.025433162
54	0xbb5f819a	-0.0034104348
55	0x3bfe046b	0.0077519915
56	0xbb813770	-0.0039433762
57	0xbb962288	-0.004581753
58	0xbdf734ab	-0.120705925
59	0xbb4dd65f	-0.0031408293
60	0xbc2853d0	-0.010273889
61	0xbc8f312e	-0.017479505
62	0xbc03f848	-0.0080548
63	0x3d145f94	0.036223963
64	0x3ceaa328	0.028642252
65	0xbbb68005	-0.0055694603
66	0x3d087229	0.033311997
67	0xbe00053f	-0.12502001
68	0xbd387dae	-0.045041732
69	0xbc0c2277	-0.008553139
70	0xbd0ddf01	-0.0346365
71	0x3c1aaccd	0.009440613
72	0xbb1dc832	-0.0024075625
73	0x3bf16164	0.007366346
74	0xb800c9d5	-3.070555e-05
75	0x3a02ff93	0.000499719
76	0xbe3353cf	-0.17512439
77	0x3b31f908	0.002715649
78	0x39d680ca	0.00040913216
79	0x3a73ed30	0.0009305058
80	0xbb5e38bd	-0.003390833
81	0x3bfea981	0.0077716713
82	0x3c6b422d	0.014359039
83	0xbc21522c	-0.009846251
84	0x3c3f44ec	0.011674147
85	0xbdf2586d	-0.11833272
86	0xbbcb7b6c	-0.0062097814
87	0xbc4ec7c1	-0.012620867
88	0xbbe67cd3	-0.007033923
89	0xbb7a4604	-0.0038188705
90	0x3c28676c	0.010278564
91	0x3d41c94a	0.047311105
92	0x3bf7b9ea	0.0075600045
93	0x3d480f61	0.04884279
94	0x3d92b8cf	0.07164156
95	0xbd5fc9ea	-0.05463592
96	0x3c06456f	0.008195265
97	0xbd2b3a36	-0.04180356
98	0xbcdde82a	-0.027088244
99	0xbb04a515	-0.0020239998
100	0xbc292d2f	-0.010325714
101	0xbc4a1638	-0.012334399
102	0x3c3f94aa	0.011693159
103	0xbdf0d04f	-0.11758482
104	0xba1ba5ef	-0.0005937507
105	0xbc6c9d68	-0.014441825
106	0x3c12e6bd	0.008966145
107	0x3ba56e0f	0.0050485204
108	0x3ca3cb04	0.019994266
109	0x3b8974bd	0.0041948245
110	0xbc941141	-0.018074634
111	0x3be19c79	0.006885108
112	0x3e1a023f	0.1503992
113	0xbc1c7447	-0.009549207
114	0xbc8f5ea2	-0.01750118
115	0xbbfee7ab	-0.007779082
116	0xbb228f84	-0.002480478
117	0x3c4e589a	0.012594366
118	0x3afad9f1	0.0019138438
119	0x3bc60d62	0.006044076
120	0x3c09e316	0.008415958
121	0x3e17517c	0.14777178
122	0xbcadb0a5	-0.021202395
123	0x3c6e9097	0.01456084
124	0xbc64b8bf	-0.0139600625
125	0xbbe018bc	-0.006838886

b1_conv_3.weight f4 [14, 1, 3, 3]
0	0x3bb02921	0.0053759967
1	0x3bce359f	0.006293013
2	0x3c0c37e6	0.008558249
3	0x3bf0206e	0.0073280847
4	0x3d4257f2	0.047447152
5	0x3c454574	0.012040485
6	0x3bd68ee4	0.0065477956
7	0x3c3c7de5	0.011504625
8	0x3c15dcb4	0.009146858
9	0xbac8f0d7	-0.0015330565
10	0x39e59f2e	0.00043796882
11	0xbaad5798	-0.0013224958
12	0xb9d78169	-0.00041104414
13	0x3db9a748	0.090651095
14	0xba0420d8	-0.00050402945
15	0xbaa8c948	-0.0012877369
16	0xba8b55e7	-0.0010630459
17	0xbad3b81e	-0.0016152894
18	0xbac8a9db	-0.001530941
19	0xbb227be6	-0.0024793088
20	0x3a087af2	0.00052063086
21	0xbb33081c	-0.0027318066
22	0xbd939dd2	-0.07207836
23	0xb989db60	-0.00026294123
24	0xbab32b8e	-0.0013669597
25	0xb886a373	-6.420063e-05
26	0xba9e0b2e	-0.0012057775
27	0xbc47f319	-0.012203955
28	0xbc62f3d0	-0.013852075
29	0xbc135bac	-0.008994024
30	0xbc25b294	-0.010113377
31	0xbd89a359	-0.06720609
32	0xbbe2ee78	-0.0069254003
33	0xbc1069f4	-0.008814324
34	0xbbea64ab	-0.007153114
35	0xbc08459a	-0.008317376
36	0xb98675d3	-0.00025646258
37	0x3b00b284	0.0019637654
38	0x3a1e462e	0.0006037679
39	0x3a4465a1	0.00074919505
40	0xbd9464f3	-0.07245817
41	0xba105c90	-0.0005506957
42	0x3a479b42	0.0007614383
43	0xba9551ce	-0.0011392178
44	0xbada61ae	-0.0016661191
45	0x3a5ba2b3	0.0008378431
46	0xbaa3a687	-0.0012485542
47	0xba2c1723	-0.0006564727
48	0xba962bd2	-0.0011457151
49	0x3dc3f74c	0.095686525
50	0x3b067afc	0.0020520082
51	0xb74a0e29	-1.2043435e-05
52	0x3a8c8147	0.001071968
53	0xb96a6d25	-0.00022356639
54	0x3a2c069e	0.00065622653
55	0x3b0722ec	0.002062018
56	0x3acce989	0.0015633564
57	0x3ad304b6	0.0016099426
58	0x3d90e258	0.07074422
59	0x3ab25c19	0.001360777
60	0x3a92c33e	0.0011197103
61	0x3a93ee27	0.0011286185
62	0x3ad4cad4	0.0016234764
63	0x3acea5db	0.0015765982
64	0x39875989	0.00025815915
65	0xb981ca36	-0.00024755456
66	0x3a065b32	0.00051252835
67	0xbdc0f179	-0.09421057
68	0x39ecc89e	0.000451629
69	0xb9af15eb	-0.0003339493
70	0x390b22d0	0.00013269042
71	0x3a25f791	0.0006331141
72	0x3aa02bff	0.0012220143
73	0xbb82da0a	-0.0039932774
74	0xb922a27a	-0.00015510051
75	0xbb3d77ae	-0.0028910446
76	0x3dc9bb15	0.09850136
77	0xbb29cf0b	-0.002591076
78	0xba4b8ab5	-0.00077645044
79	0xbb3b6fb8	-0.0028600525
80	0x3a75e18a	0.0009379616
81	0xbaab2129	-0.0013056147
82	0xbaf440c3	-0.0018635023
83	0x39b955ac	0.0003534978
84	0xbb58276d	-0.0032982484
85	0x3dab549c	0.08365747
86	0xbaf0278b	-0.0018322332
87	0x390a8edc	0.00013213925
88	0xbac70531	-0.0015184042
89	0xba964cb2	-0.0011466949
90	0xba114cd4	-0.00055427593
91	0x391665ac	0.0001434299
92	0x3890c2b7	6.9027235e-05
93	0xba8f22b6	-0.0010920379
94	0x3dd4d77b	0.10392662
95	0xbb1de577	-0.002409307
96	0xb9ff5c98	-0.00048706378
97	0xba06d8b6	-0.0005143987
98	0xb8e8c90f	-0.00011100072
99	0xb93bb2a3	-0.00017900257
100	0xbb01b3a2	-0.0019790907
101	0xb9c94c94	-0.00038394763
102	0xbb057a2f	-0.0020367017
103	0x3da34bca	0.0797344
104	0xbac1b0ca	-0.0014777419
105	0x3a014997	0.0004931925
106	0xbb3c7cbe	-0.0028760876
107	0x39ec6ffb	0.0004509686
108	0x3b354d23	0.0027664385
109	0xba002035	-0.0004887612
110	0x3a70cf90	0.00091862027
111	0xba8bc09c	-0.001066226
112	0x3dec9050	0.11550963
113	0x39c02550	0.00036648894
114	0x3a626113	0.0008635681
115	0x3a20d2a9	0.00061349064
116	0x3a9e8ec7	0.0012096994
117	0x3af18026	0.0018425032
118	0x3a3b86a9	0.000715355
119	0x3a50802a	0.0007953668
120	0x3a7b4695	0.00095854077
121	0xbdaa10a1	-0.08303953
122	0x3b0ea49c	0.0021765595
123	0x3a2a9068	0.00065065036
124	0x3acc6935	0.0015595319
125	0xba4bbf7c	-0.0007772369

p_conv_1.weight f4 [14, 14, 1, 1]
0	0xbc8b0930	-0.016972154
1	0xbbe25d87	-0.006908122
2	0x3cb779b4	0.0223969
3	0xbd1f2fbe	-0.03886389
4	0x3e228f3e	0.15874955
5	0xb91cc172	-0.00014949383
6	0x3c9ecae3	0.019383853
7	0xbbd8283a	-0.0065965923
8	0x3ad5a678	0.0016300222
9	0xbda49210	-0.08035672
10	0x3c0c5141	0.008564294
11	0xbb55aa90	-0.0032602884
12	0x3d0bc02b	0.034118813
13	0xbc87e3e8	-0.016588166
14	0x3caa0423	0.020753926
15	0xbdaba60d	-0.08381281
16	0x3d9284e0	0.0715425
17	0xbc8e1788	-0.017345205
18	0xbcb10f69	-0.021613793
19	0xbd4e4159	-0.05035529
20	0xbc429408	-0.011876114
21	0x3cc9e4d7	0.024645252
22	0xbd59e3f1	-0.053195897
23	0x3cb4855c	0.022036247
24	0x3c0c13d4	0.008549649
25	0xbd450f17	-0.048110094
26	0xbd09badb	-0.033625465
27	0xbbe1fbcd	-0.006896472
28	0xbc9cfb0c	-0.019162677
29	0x3d8b1d12	0.06792654
30	0xbde33763	-0.110945486
31	0x3d17f4dc	0.03709875
32	0xb9d0bbd7	-0.00039812803
33	0x3d66f620	0.056387067
34	0x3cca0e3c	0.02466499
35	0xbda124d4	-0.078683525
36	0x3dbdfb91	0.09276498
37	0xbbeb287f	-0.0071764584
38	0xbcaddd34	-0.021223642
39	0x3db4d292	0.088292256
40	0x3c9291b2	0.017891739
41	0x3c62c148	0.013840027
42	0xbc1dc9a1	-0.009630592
43	0xbcc13912	-0.023586784
44	0xbd9810d8	-0.07425088
45	0x3db7d4fd	0.08976171
46	0x3c647ce8	0.013945796
47	0xbd4f129a	-0.05055485
48	0x38363cbf	4.3448756e-05
49	0x3bc5aee4	0.0060328115
50	0x3c2d1e5e	0.010566322
51	0x3cfd3026	0.030906748
52	0x3ccf2c52	0.025289688
53	0x3c863bc9	0.01638593
54	0x3c9f548d	0.019449497
55	0x3d07d623	0.0331632
56	0xbb434849	-0.0029797724
57	0xbdbf9676	-0.0935487
58	0x3d64a92b	0.055825394
59	0xbd38a83b	-0.045082312
60	0x3d062828	0.03275314
61	0xbd0fb4ed	-0.035084654
62	0x3af03b2a	0.0018328179
63	0x3c69d1b6	0.01427119
64	0x3d95fc8b	0.073235594
65	0x3a382a0c	0.00070253084
66	0x3c7efe19	0.015563511
67	0xbcae6576	-0.021288615
68	0xbcf6ee51	-0.030142935
69	0xbb8cb8b7	-0.0042944807
70	0xbd0ed32d	-0.03486936
71	0x3c097724	0.008390222
72	0x3d26f42f	0.040760215
73	0xbd4eab89	-0.050456557
74	0xbbf2c2d3	-0.0074084788
75	0xbda79b04	-0.08183864
76	0x3c959025	0.01825721
77	0xbc94c7df	-0.018161712
78	0x3d41cadb	0.0473126
79	0xbc4035a5	-0.01173154
80	0xbd04c3b6	-0.032413207
81	0xbb8acd57	-0.004235904
82	0x3d8171b4	0.06320515
83	0x3b58b6d2	0.0033067954
84	0xbca79d3c	-0.020460717
85	0xbe10c2ea	-0.14136854
86	0x3dc4d380	0.09610653
87	0xbd1c9f68	-0.03823796
88	0xbc193bde	-0.009352652
89	0x3d65b976	0.056085072
90	0x3d7e4f74	0.06208749
91	0x3cb7ad42	0.022421483
92	0x3d2e610c	0.04257302
93	0xbbb93d80	-0.0056530833
94	0xbd56a8aa	-0.052406944
95	0xbcb5e2df	-0.022202907
96	0xbd5fbb8d	-0.05462222
97	0xbd5b0bea	-0.05347816
98	0xbc77dadd	-0.015127865
99	0xbd2c4b28	-0.042063862
100	0x3cb84585	0.022494087
101	0xbca521a7	-0.020157648
102	0xbd54d7b8	-0.051963538
103	0x3deb7d24	0.11498478
104	0xbc46eb1c	-0.012141015
105	0x3c037086	0.008022433
106	0xbdd5b2d6	-0.10434501
107	0x3cee8778	0.02911733
108	0xbd302d5f	-0.04301202
109	0x3aba2eec	0.0014204658
110	0xbd3aa6e9	-0.045569334
111	0xbb0ce3d0	-0.0021498092
112	0xbc293d0c	-0.010329496
113	0xbca408b4	-0.020023681
114	0x3da16c51	0.07881988
115	0x3e1062fe	0.14100263
116	0x3c2decdd	0.010615555
117	0x3c99482e	0.018711176
118	0x3c66902a	0.014072457
119	0xbcc13c32	-0.023588274
120	0x3d14126a	0.036150374
121	0x3c07fa86	0.008299476
122	0x3c3a0137	0.011352829
123	0x3c98a03e	0.018631097
124	0xbc4ab556	-0.012372335
125	0xbc31e6bd	-0.010858235
126	0xbc1245d5	-0.008927782
127	0x3c8ead04	0.017416485
128	0xbd425f2d	-0.047454048
129	0x3cad5a69	0.021161275
130	0xbc4e55bf	-0.012593686
131	0xbe389469	-0.18025364
132	0x3cb6ff2b	0.02233847
133	0xbd8ebcfa	-0.06969638
134	0xbcee47cd	-0.029086972
135	0xbc87657f	-0.01652789
136	0xbc502662	-0.012704464
137	0x3d5cfecb	0.053953927
138	0x3d160ea8	0.03663507
139	0xbca2ea5b	-0.01988714
140	0x3b99e1b9	0.0046960977
141	0x3d8e0ed1	0.0693642
142	0x3c400f3c	0.011722382
143	0xbc7658e2	-0.01503584
144	0x3c97ba12	0.018521342
145	0x3d204013	0.039123606
146	0x3b2a8804	0.0026021013
147	0x3ceb2a84	0.028706796
148	0xbd65defe	-0.056120865
149	0x3d152674	0.036413625
150	0xbcc89049	-0.024482863
151	0xbcc1018b	-0.023560306
152	0xbda9367d	-0.08262346
153	0xbd7dafed	-0.061935354
154	0xbdc3202c	-0.09527621
155	0xbda46578	-0.08027166
156	0xbd0d50ca	-0.034500875
157	0xbda365b9	-0.079783864
158	0x3c7909ce	0.0152000915
159	0x3d35b2d9	0.044360016
160	0xbcf3ae8d	-0.029746318
161	0x3d67dd5a	0.05660758
162	0xbd2bfcc9	-0.04198912
163	0x3d8384e7	0.064218335
164	0x3d3c13ee	0.045917444
165	0x3d4d2383	0.050082695
166	0xbb8dd3b1	-0.004328214
167	0xbb3ef3b4	-0.0029136958
168	0xbca560c0	-0.020187736
169	0xbcd1e6ec	-0.025622807
170	0x3df6ca32	0.120502844
171	0xbdb89554	-0.09012857
172	0x3cc6fc17	0.024290128
173	0x3dc68d20	0.09694886
174	0xbd591c0b	-0.05300526
175	0x3bcab6db	0.006186349
176	0x3cc06314	0.023484744
177	0x3cc8b890	0.024502069
178	0xbc0715d5	-0.008244951
179	0xbcf5d897	-0.030010505
180	0x3d0e3c31	0.03472537
181	0x3c9a8a0b	0.018864652
182	0xbc9e1815	-0.019298593
183	0x3cc2b1e0	0.023766458
184	0x3dd5d959	0.104418464
185	0xbd595af7	-0.053065266
186	0xbc2e6279	-0.010643595
187	0x3d015434	0.031574443
188	0xbd168c77	-0.03675505
189	0xbd51b996	-0.05120238
190	0xbdc24187	-0.094851546
191	0x3ce19194	0.027535237
192	0xbd970e5f	-0.07375788
193	0xbd3b15b0	-0.04567498
194	0x3dac770a	0.084211424
195	0xbc221c3d	-0.009894428

p_conv_2.weight f4 [14, 14, 1, 1]
0	0xbc9230c4	-0.017845519
1	0xbbf297c9	-0.007403348
2	0xba638a76	-0.0008679995
3	0xbd257f7a	-0.040404774
4	0x3c1aa6ef	0.009439214
5	0x3d2cd0a1	0.04219115
6	0xbcc0df76	-0.023544054
7	0x3dc44438	0.09583324
8	0xbb9dc46f	-0.0048146765
9	0xbce1819f	-0.027527628
10	0x3d92ccfd	0.07168005
11	0xbcd1dec5	-0.02561892
12	0x3b8c0c24	0.004273908
13	0xbbb201cb	-0.0054323426
14	0x3b3d25f6	0.0028861738
15	0xbd519835	-0.051170547
16	0x3e05e4ac	0.13075513
17	0x3b246202	0.0025082831
18	0xbc00cf34	-0.007861901
19	0x3bb5a20a	0.005542998
20	0x3be53dad	0.0069958777
21	0x3bdbced7	0.006708007
22	0x3bd6adef	0.006551496
23	0x3caefc69	0.021360593
24	0xbd19eff6	-0.03758236
25	0x3c824e26	0.015906405
26	0x3cb6ef19	0.022330808
27	0xbe03b9f1	-0.128639
28	0x3c900888	0.017582193
29	0x3d7ec07c	0.062195286
30	0xbc30767d	-0.010770437
31	0xbcf5eef5	-0.03002117
32	0x3b35ecdf	0.0027759594
33	0x3c1a7a38	0.009428553
34	0x3cef279c	0.029193692
35	0x3c64c8c6	0.013963884
36	0xbd11e44a	-0.035618104
37	0x3d5ae901	0.053444866
38	0xbd57eda7	-0.052716877
39	0x3afb2e66	0.0019163608
40	0xbda7b292	-0.081883565
41	0x3d9fd9a1	0.07805181
42	0xbb99be96	-0.004691909
43	0xbd1933f3	-0.03740306
44	0xbb923386	-0.0044617085
45	0xbbb31188	-0.0054647364
46	0xbd8b927e	-0.068150505
47	0xbd92fd8c	-0.071772665
48	0x3cb6864f	0.02228084
49	0xbd63fedd	-0.05566298
50	0x3b7c34c7	0.0038483606
51	0x3bc359a0	0.005961612
52	0xbcba1569	-0.022715287
53	0x3caae490	0.02086094
54	0xbbe3937d	-0.006945072
55	0x3a2ba5f2	0.000654786
56	0xbbcf7829	-0.006331463
57	0x3dd3dd7e	0.10344981
58	0xbb5df119	-0.003386563
59	0xbb9bd01c	-0.004755033
60	0x3b9a6482	0.0047116885
61	0xbc33c20b	-0.010971556
62	0xbc9bf253	-0.019036448
63	0x3cef08a6	0.029178929
64	0xbc844e2e	-0.01615056
65	0xbb2f2b2b	-0.002672861
66	0x3cb8a6a3	0.022540396
67	0xbcd2ffb0	-0.025756687
68	0x3d45e81a	0.048317052
69	0xbdb46d58	-0.08809918
70	0xbc8556e3	-0.016276782
71	0xbd82822d	-0.06372485
72	0x3da2104b	0.07913264
73	0x3d2aac9d	0.041668523
74	0xbc7d55ec	-0.01546238
75	0x3b7c26dc	0.003847531
76	0xbd760b4c	-0.060069367
77	0xbd8d77a0	-0.06907582
78	0x3d230914	0.03980358
79	0xbd0ce29f	-0.03439581
80	0xbb664da5	-0.0035141495
81	0x3c8d7be9	0.017270999
82	0xbb36b10f	-0.0027876531
83	0xbdb8370d	-0.08994875
84	0xbc7813fb	-0.015141482
85	0x3d65854d	0.05603533
86	0xbc20a467	-0.009804822
87	0x39a35155	0.0003115038
88	0x3d41310e	0.047165923
89	0x3c8a2a83	0.016865974
90	0xbd63f1cd	-0.05565052
91	0xbca173e5	-0.019708583
92	0x3d236ffa	0.03990171
93	0xbc22b728	-0.009931363
94	0xbd604684	-0.05475475
95	0x3d628f5d	0.055312503
96	0x3ccdecd7	0.025137348
97	0x3d0a2713	0.03372867
98	0xbc9f0589	-0.019411819
99	0x3d227cfe	0.039669983
100	0xbdf0aca4	-0.117516786
101	0x3b122103	0.0022297509
102	0xbccbe4e2	-0.024889413
103	0xbc043331	-0.008068846
104	0xbd9c5683	-0.07633688
105	0xbc945fea	-0.018112142
106	0xbc3eb522	-0.011639865
107	0xbd2a7a92	-0.0416208
108	0x3a02f603	0.0004995765
109	0xbd79d3b0	-0.060992897
110	0xbd3a02dc	-0.045412883
111	0xbb35300a	-0.0027647042
112	0x3ba1704b	0.0049267164
113	0x3c972c47	0.01845373
114	0xbab56ac8	-0.0013841027
115	0xbca088b6	-0.019596439
116	0xbc5b2da2	-0.013377579
117	0xbc317d5d	-0.010833112
118	0x3cc5650b	0.024096033
119	0x3c164215	0.009171029
120	0x3e23ffba	0.1601552
121	0x3cbb74d5	0.022882858
122	0xbc72d29e	-0.014820723
123	0xbc96b49b	-0.018396666
124	0xbcea36c7	-0.028590573
125	0x3d049631	0.032369796
126	0x3c908cd4	0.017645277
127	0xbd4fa027	-0.050689843
128	0x3d83a7c3	0.064284824
129	0xbb0a37af	-0.002109032
130	0x3d1c3f6c	0.03814642
131	0x3cab73e0	0.020929277
132	0xbcc25437	-0.023721797
133	0x3d2095f8	0.03920552
134	0x3d20c591	0.039250914
135	0xbd82cb6b	-0.06386455
136	0xbd295baa	-0.041347183
137	0x3a59a995	0.0008303163
138	0xbd8f175c	-0.06986877
139	0x3d417d25	0.047238488
140	0x3d048b85	0.03235962
141	0x3dc888a8	0.0979169
142	0xbd0b64a4	-0.034031525
143	0x3c67a5bb	0.014138634
144	0xbc4a8e41	-0.012363018
145	0xbcd8532f	-0.026406853
146	0xbd02c2bc	-0.031923994
147	0xbdc8ca77	-0.09804242
148	0x3ceb6590	0.028734952
149	0x3ca37b61	0.019956293
150	0xbcdea124	-0.027176447
151	0x3d0f2bb2	0.03495378
152	0x3d896a67	0.06709748
153	0xbc8c0529	-0.017092304
154	0x3c85fd32	0.016356084
155	0x3d97e869	0.074173756
156	0xbd1d6240	-0.038423777
157	0xbbfdec07	-0.007749084
158	0x3cfbfd26	0.030760359
159	0x3d1c8aef	0.038218435
160	0xbc1fa173	-0.009743082
161	0x3cebbb17	0.028775735
162	0x3c244fea	0.010028819
163	0x3d306158	0.043061584
164	0xbd5140a0	-0.05108702
165	0x3cc3bf0a	0.023894805
166	0x3ce9a607	0.02852155
167	0xbcbc527f	-0.022988556
168	0x3d2c02ce	0.041994862
169	0xbde4111c	-0.11136076
170	0x3db9ee8f	0.090787046
171	0xbb9da2a7	-0.0048106494
172	0x3d214933	0.03937645
173	0x3c89d2fa	0.016824234
174	0x3d9d52ff	0.07681846
175	0x3cb0f56f	0.021601407
176	0x3be58ad3	0.0070050745
177	0x3d449848	0.04799679
178	0xbc4d58a1	-0.012533338
179	0x3d085ae9	0.033289824
180	0x3ce6583b	0.028118243
181	0x3d7ee658	0.06223139
182	0x3af66ec5	0.0018801322
183	0xbc228902	-0.0099203605
184	0x3c73dd05	0.014884238
185	0xbbd07e49	-0.0063627106
186	0x3cb505f5	0.022097567
187	0x3d65bb1b	0.05608664
188	0xbd214e43	-0.039381277
189	0x3d15e309	0.03659347
190	0x3c848e1d	0.016181046
191	0xbdab956e	-0.08378111
192	0x3ce50478	0.027956232
193	0xba0ba970	-0.00053276774
194	0x3d909a12	0.070606366
195	0xbd9ee207	-0.07757955

p_conv_3.weight f4 [14, 14, 1, 1]
0	0x3c165325	0.009175097
1	0xbcc6e1a2	-0.024277512
2	0xbd1a396a	-0.03765241
3	0xba7d2942	-0.0009657332
4	0xbd24775c	-0.040152892
5	0x3d8dc4af	0.0692228
6	0x3cc6b550	0.024256378
7	0xbd145e9c	-0.03622304
8	0x3a9e6b7b	0.0012086475
9	0xbcd519d8	-0.0260133
10	0xbce9675a	-0.028491665
11	0xbc9257af	-0.017864076
12	0xbc3cc095	-0.0115205245
13	0xbc164a1d	-0.009172943
14	0x3cf275be	0.02959716
15	0xbbd8df40	-0.0066184103
16	0xbd1f6549	-0.038914952
17	0xbb9c657b	-0.0047728396
18	0xbd4c3be2	-0.049861796
19	0x3d585614	0.052816465
20	0x3d3ae001	0.045623783
21	0xbd31a1bc	-0.043367133
22	0x3be371b4	0.0069410447
23	0xbc25ef77	-0.010127894
24	0xbd12a231	-0.03579921
25	0xbcfdfd4a	-0.031004567
26	0xbc9e05ff	-0.019289969
27	0xbc126b66	-0.008936739
28	0x3cefe4d8	0.029283926
29	0xbb1c717d	-0.0023871355
30	0x3a7b2e0e	0.0009581753
31	0xbd40ae3f	-0.047041174
32	0xba7372c1	-0.0009286814
33	0xbca41c17	-0.020032926
34	0x3bd6923d	0.0065481947
35	0xbd260a52	-0.040537186
36	0x3d7d9ab8	0.06191513
37	0x3cf2f074	0.029655673
38	0xbcf78cbd	-0.030218476
39	0x3c077e21	0.008269818
40	0xbd009328	-0.03139034
41	0x3ccb9d44	0.024855264
42	0x3af9425e	0.0019016971
43	0x3c047fa3	0.008087072
44	0xbb8873bc	-0.0041641872
45	0x3d23cb2f	0.039988693
46	0x3c9a1e32	0.018813226
47	0x3cc8506b	0.024452409
48	0xbcd72307	-0.02626182
49	0xbb6a5f4a	-0.0035762363
50	0x3c021803	0.007940295
51	0xbd26f865	-0.04076423
52	0xbc2326ca	-0.0099579785
53	0x3c8da1e7	0.017289115
54	0x3c923397	0.017846866
55	0xbd529cf5	-0.051419217
56	0x3cb7dbde	0.022443708
57	0x3d30d606	0.04317286
58	0x3c78a48e	0.015175952
59	0x3c5e9003	0.01358414
60	0x3ca3cc53	0.01999489
61	0xbd90c302	-0.07068445
62	0xbc22c566	-0.009934759
63	0x3c55c129	0.013046541
64	0xbc0ddefd	-0.008659122
65	0x3c2ce236	0.01055198
66	0x3d7d2465	0.061802287
67	0xbcb4254c	-0.02199044
68	0x3d9778a3	0.073960565
69	0x3cb5c896	0.022190373
70	0x3ca7c49c	0.020479493
71	0xb8f96ae0	-0.00011893152
72	0xbc006fc3	-0.007839146
73	0xbcbac7b7	-0.02280031
74	0x3c0d9192	0.008640664
75	0x3c829768	0.015941337
76	0x3d34a02c	0.044098064
77	0x3bc8db75	0.006129677
78	0x3d23f96b	0.040032785
79	0xbd505ac1	-0.0508678
80	0xbd629233	-0.055315208
81	0x3cdefcff	0.027220247
82	0x3cc95282	0.024575476
83	0x3ce29ce3	0.0276627
84	0x3c832eab	0.016013464
85	0x3d396ab6	0.045267783
86	0x3ce7198f	0.02821043
87	0xbca0f6e7	-0.019648982
88	0x3ca61dc5	0.020277867
89	0xbda60279	-0.0810594
90	0x3d1aaeea	0.037764467
91	0x3d0008c8	0.031258374
92	0xbca97dfb	-0.020689955
93	0xbc9ae277	-0.018906815
94	0x3cea6d7e	0.028616663
95	0xbc49b7fe	-0.012311934
96	0x3d97d08e	0.074128255
97	0x3d14f174	0.03636308
98	0x3d14f4ce	0.036366276
99	0x3c732793	0.014840978
100	0xbd0c0118	-0.03418073
101	0x3c734261	0.014847369
102	0x3c05a14a	0.00815613
103	0x3ca4f9bd	0.020138616
104	0x3d20b565	0.03923549
105	0xbccec1ee	-0.025238957
106	0xbc7b6844	-0.015344683
107	0xbd3e88d0	-0.046517193
108	0xbd411d2a	-0.047146954
109	0x3ce5c8f4	0.028049923
110	0xbcfd95e8	-0.03095527
111	0x3cb05070	0.02152273
112	0x3cc55395	0.024087707
113	0x3d16ce87	0.036818054
114	0xbd40888c	-0.04700522
115	0xbd20e4fd	-0.03928088
116	0xbbdf4050	-0.0068130866
117	0xbd2b90c4	-0.041886106
118	0x3c332fc5	0.010936682
119	0x3b8e37d3	0.004340151
120	0xbd87cefb	-0.06631275
121	0xbc69277d	-0.014230606
122	0xbc2daeac	-0.010600727
123	0xbcc80f0d	-0.02442124
124	0xbb9f5bd8	-0.0048632436
125	0x3c9256ca	0.01786365
126	0x3b834620	0.0040061623
127	0xbd517d3c	-0.051144823
128	0x3cfe6539	0.031054126
129	0xbced85c4	-0.028994448
130	0x3b4fb1b1	0.0031691606
131	0x3d09e7eb	0.03366844
132	0x3c3ba535	0.011452963
133	0xbd317c9d	-0.04333173
134	0xbc0392e0	-0.008030623
135	0xbcdb808d	-0.026794696
136	0xbdb7effa	-0.08981319
137	0x3d1dc729	0.038520012
138	0xbcc6015d	-0.024170572
139	0x3d0e89ae	0.03479927
140	0x3c4d6d8a	0.012538323
141	0x3d234bdc	0.039867267
142	0x3c82e839	0.015979873
143	0x3cd85c4e	0.026411202
144	0x3c3377f6	0.010953894
145	0xbd0ce78d	-0.03440051
146	0xbd54e9f9	-0.051980946
147	0xbc0ef873	-0.008726227
148	0xbbc81935	-0.0061065205
149	0x3d636b9c	0.055522546
150	0x3dd411a1	0.10354925
151	0xbc3287b3	-0.010896611
152	0x3d36996c	0.04457991
153	0xbb4abaf9	-0.0030934198
154	0x3c88fe19	0.016722726
155	0x3d63cb92	0.05561406
156	0xbd05d986	-0.03267815
157	0x3b62ca2c	0.0034605367
158	0xb8e1c89b	-0.00010766202
159	0xbd3710ee	-0.04469388
160	0x3cc770cd	0.02434578
161	0xbc335086	-0.010944491
162	0xbcc03eb5	-0.023467401
163	0x3cfea135	0.031082729
164	0xbba32b4e	-0.0049795276
165	0xbd60b332	-0.054858394
166	0x3a17f0ee	0.0005796094
167	0xbb67ef24	-0.0035390342
168	0x3cb3bc43	0.021940356
169	0x3d303598	0.04301986
170	0xbbe2bb4f	-0.0069193016
171	0xbc8a0b4e	-0.016851094
172	0xbba51443	-0.005037816
173	0xbd0276de	-0.03185164
174	0x3ca27e73	0.019835686
175	0x3ca19d0a	0.019728202
176	0x3da43e3f	0.08019685
177	0x3cbf1f50	0.02333036
178	0x3c1b3e42	0.009475293
179	0xbcf02d33	-0.029318428
180	0x3cbe6c16	0.023244899
181	0x3b345a6a	0.0027519711
182	0xbc2c38d4	-0.010511596
183	0xbd00dc3e	-0.03146004
184	0xbcd46196	-0.025925439
185	0xbaef906b	-0.0018277293
186	0xbc9e48ed	-0.019321883
187	0x3d743745	0.05962302
188	0xbcc772fa	-0.024346817
189	0xbda0ee9d	-0.07858012
190	0x3ca45eee	0.020064797
191	0xbb25be83	-0.0025290556
192	0xbccf4a93	-0.025304114
193	0x3bccad74	0.006246263
194	0xbc4490e9	-0.01199744
195	0xbd71e871	-0.059059564

output_Y.weight f4 [1, 14, 3, 3]
0	0xbe479679	-0.19490995
1	0xbe2a4c21	-0.16630603
2	0x3d75a7a0	0.059974313
3	0xbcf88385	-0.03033615
4	0x3ec628ca	0.38702995
5	0xbe1fa224	-0.15589195
6	0xbd643447	-0.055713918
7	0xbc8df3b4	-0.01732812
8	0xbd2f0070	-0.042725027
9	0xbcbd769b	-0.023127845
10	0xbd906b14	-0.070516735
11	0xbdf25f09	-0.11834533
12	0xbc895120	-0.016762316
13	0x3ef9ae02	0.4876557
14	0x3d6c76cb	0.057730477
15	0xbd3c3e90	-0.0459581
16	0x3c0f7307	0.008755452
17	0xbe8f79b6	-0.28022546
18	0x3c2247a9	0.00990478
19	0x3dae19d2	0.085010186
20	0xbc2c70e2	-0.01052496
21	0xbd4859b1	-0.04891366
22	0x3e9ea878	0.30987906
23	0x3e238cbd	0.15971656
24	0xbeb99205	-0.36244217
25	0x3c466ba3	0.0121106235
26	0x3d4306db	0.04761396
27	0x3d526a90	0.051371157
28	0xbd384b02	-0.044993408
29	0xbe3407b0	-0.17581058
30	0xbcc6d1dd	-0.024269992
31	0x3e1f44ed	0.15553637
32	0xbc36c531	-0.0111554125
33	0xbe50d413	-0.203934
34	0x3cd0f0d8	0.025505468
35	0x3e2f7151	0.1713307
36	0x3d558aaf	0.052134212
37	0x3e63d2ea	0.22248426
38	0xbb0f5930	-0.0021873228
39	0x3e41bfbe	0.189208
40	0xbf191427	-0.59796375
41	0xbd42c276	-0.047548734
42	0x3d2d0fce	0.0422514
43	0xbc7a9d44	-0.015296284
44	0x3e8db957	0.27680466
45	0xbe81c348	-0.253443
46	0x3c4d6538	0.012536339
47	0x3e5a3975	0.2131098
48	0xbe00dd3a	-0.12584391
49	0xbe07db3e	-0.13267228
50	0x3e4953cc	0.19660872
51	0x3dc7d04c	0.09756526
52	0x3d1b8ed7	0.03797802
53	0xbd19573a	-0.0374367
54	0xbb51318a	-0.0031920397
55	0x3d6a2d6d	0.057172228
56	0x3e8a05d4	0.26957572
57	0x3e234f42	0.15948203
58	0xbf457c26	-0.7714256
59	0x3e05712c	0.13031453
60	0x3e9a11c5	0.30091682
61	0x3e3c5718	0.18392599
62	0xbda6a16c	-0.081362575
63	0xbe7a6411	-0.24452235
64	0xbe2047bb	-0.15652363
65	0x3c9560db	0.01823466
66	0xbde41026	-0.111358926
67	0x3e445c4a	0.1917583
68	0x3e1e6e6c	0.1547181
69	0x3dd8444c	0.105599016
70	0x3e6023c9	0.21888651
71	0x3cccc922	0.024998251
72	0xbdd3625c	-0.10321495
73	0xbe8a146c	-0.26968706
74	0xbdf92df3	-0.12166967
75	0x3e475be7	0.19468652
76	0xbdd53631	-0.10410727
77	0xbe3b91bb	-0.1831731
78	0x3e9c7f97	0.30566093
79	0x3e217e02	0.15770724
80	0x3d0618f2	0.032738633
81	0xbd1c54ee	-0.038166933
82	0xbe8b616b	-0.27222762
83	0xbcb1d7e7	-0.021709396
84	0xbe53ab63	-0.20670848
85	0x3ee0344f	0.43789908
86	0x3dc0eca8	0.094201386
87	0x3ce3468b	0.027743598
88	0x3df59224	0.11990765
89	0xbe1af9b2	-0.15134314
90	0x3e8e72c3	0.2782193
91	0x3e1cf687	0.15328418
92	0xbdfa5782	-0.12223722
93	0x3e5e5138	0.2171067
94	0xbe92d47d	-0.2867774
95	0xbda8849c	-0.08228418
96	0xbe01fa65	-0.12693174
97	0xbd9120e3	-0.07086351
98	0x3e42141f	0.18952988
99	0x3e79c2c5	0.24390705
100	0xbc492aab	-0.012278239
101	0xbd983459	-0.074318595
102	0x3d9f87d1	0.07789577
103	0x3ced9870	0.029003352
104	0xbe715184	-0.23566252
105	0x3dad9a6a	0.08476718
106	0xbe047ec2	-0.1293898
107	0xbe2de5b3	-0.16982155
108	0x3e0c9dd4	0.13732082
109	0x3e8e431d	0.27785578
110	0x3e2747a9	0.1633593
111	0xbdfc6eb4	-0.123258024
112	0xbeb8132f	-0.35952136
113	0x3d907a7a	0.070546106
114	0xbdf82459	-0.12116308
115	0xbe3b982d	-0.18319769
116	0xbc9db350	-0.019250542
117	0x3c8751d5	0.016518513
118	0xbdb86424	-0.09003475
119	0xbe4f503c	-0.2024545
120	0xbe2957c2	-0.16537383
121	0x3f3a3b0d	0.72746354
122	0xbe352262	-0.17688897
123	0xbe2c6582	-0.16835597
124	0xbe80ab99	-0.2513092
125	0x3d65433f	0.055972334
