model/single_noDSC_v6_ch10_1.pt (torch_old, 4647 bytes, 8 tensors)

input_Y.weight f4 [10, 1, 3, 3]
00000000: 909a 63bd f8f1 583d 54f7 633e 498b 153d
00000010: e897 8abe 92f1 1b3d 8ca0 ab3c 0bab 933c
00000020: 6908 eebc 2501 6e3d 1f7a 763d c589 a43d
00000030: 38da b2bd a778 8cbe 81ba 8c3d 7f05 d83b
00000040: 25d9 52bd a898 5b3c a247 75bd 60ba faba
00000050: 8631 55bb 6ac8 7bbe 459c 1b3d da57 cd3a
00000060: d47a 3c3d 3830 233e 4347 9c3c 8978 563d
00000070: aeb7 b9bd 8605 d63b 2627 febd 2ef7 e0bd
00000080: 83d4 303e 1a3c 0b3c b965 3a3e f3cf d7bd
00000090: 0ceb 84ba 6ad6 4cbc 1492 f4bb 35d0 d2bc
000000a0: dc7e c5bc 1583 5dbd 3fdb e83a 5dd5 71bd
000000b0: 4037 803e 564b 3c3d 5028 f8bd 0e5e 433d
000000c0: 5272 ad3d 1802 563b fbe8 73be 2827 5dbc
000000d0: d488 213e 6323 1f3c 7780 233d c332 1ebe
000000e0: 2d23 213d 1b34 2fbe 1159 de3e 9330 1dbe
000000f0: e986 2b3d b515 d1bd 6823 063d 0beb 24bd
00000100: 32ad 1a3e 9a61 34bd edb7 1c3e d301 cebe
00000110: 17ae 1a3e cc2c 14bd f30b bb3d 4fe8 1bbd
00000120: 2b61 fbbb 5b42 5fbc 511a c33c 46d0 f7bd
00000130: 5eb1 9fbd eae3 d0bb a96e a9bd eb62 923e
00000140: 13c5 283d d32b 853b 0d25 053d 9b08 dc3d
00000150: de70 213c deff c43d e805 11be a2b8 7fbb
00000160: ed9d 8c3c 2f96 1cbe
-0.055567324 0.052965134 0.22262317 0.036509786 -0.2706902 0.038072176 0.020950578 0.018025896
-0.029056745 0.05810656 0.060175058 0.0803409 -0.08733028 -0.274358 0.0687151 0.006592452
-0.051476616 0.013403095 -0.059882767 -0.001912903 -0.003253074 -0.2458817 0.037990827 0.0015666441
0.046015576 0.15936363 0.019076949 0.052361045 -0.09068237 0.00653142 -0.12409811 -0.10984646
0.17268567 0.008498216 0.18202867 -0.1053771 -0.001014085 -0.012502292 -0.007463703 -0.025734046
-0.024108343 -0.054080088 0.0017765536 -0.05904137 0.25042152 0.045970283 -0.12117064 0.04769712
0.084690705 0.0032655057 -0.23819344 -0.013498105 0.15774852 0.009713027 0.039917435 -0.15449052
0.039340187 -0.1710972 0.43427327 -0.15350561 0.041876707 -0.102092184 0.03274861 -0.040263217
0.15105131 -0.044038393 0.15304537 -0.40235767 0.15105473 -0.036175534 0.091331385 -0.038063344
-0.0076714954 -0.01362666 0.02381626 -0.12100272 -0.07797502 -0.0063748257 -0.0827306 0.28591093
0.04120357 0.004064062 0.032506038 0.10743829 0.00985357 0.09619115 -0.1416241 -0.0039019962
0.017165149 -0.15291665

b1_conv_1.weight f4 [10, 1, 3, 3]
00000000: 2d4b b23a 0d98 673c 7ec1 b1bb 3a7a 163d
00000010: b032 4d3d 3145 b93c f443 523d 94ac 673c
00000020: f37e 063e 5e9d d63a e4fc 04bd cf90 25bd
00000030: 8c9a 1f3d b178 01be 1f04 b3bd 8da2 b93c
00000040: b897 4d3d 317c 62bd ebec 4c3d fbe2 f33d
00000050: 1d4a 943d b0eb e23c d3c0 7c3d b6c6 ffbd
00000060: d756 183c a139 d03c 985b 91bd 90c4 60bc
00000070: 40bf 9dbd b6d8 33bc e870 62bd e74a 67bd
00000080: b866 a3bc a5d3 b3bc 1615 7dbc df45 d4bc
00000090: bae1 50be d753 77bb 04f4 993c 6797 a23c
000000a0: a215 64bc 0caf e13b 6391 223b f7b2 88ba
000000b0: 3412 1e3c d022 4ebb b3f0 983d 43c7 223d
000000c0: 3743 b33b f3c6 ac3d e66f 893d 0e34 803c
000000d0: 760e 063d 8b47 223d 49c6 cf3c f247 903d
000000e0: 08ac ac3c 9ea1 763d 760d 0e3c 3052 883d
000000f0: 3f56 0f3d 5e67 da3d 68e6 923d da05 83bc
00000100: 8794 9abd cd9a 41bd bb9d 5bbd 1078 cc3c
00000110: 845c 5ebd ee9a 82bd 1b96 bebd c0e4 58bd
00000120: 65b4 bebc 7bbe f7bb cbc6 693d e3fa bb3c
00000130: 7e15 613d 59c3 103e c6a3 bfbb 9431 ccbb
00000140: 289b 3f3d d318 68bc 5c75 80bc 1a3e 93bc
00000150: b78a 05bd 4e41 e9bd c13a 02bd dffe 45bd
00000160: d1c5 47bd 7ecb bb3c
0.0013602726 0.014135373 -0.0054246774 0.036737658 0.050097167 0.022616 0.051334336 0.014140267
0.13134365 0.0016373803 -0.032467738 -0.040421303 0.038965747 -0.12643696 -0.087410204 0.022660518
0.05019352 -0.05529422 0.05003063 0.119085275 0.072406985 0.027700275 0.06170733 -0.12489073
0.009298048 0.025418105 -0.07097548 -0.013718739 -0.07702494 -0.010976961 -0.055283457 -0.056467917
-0.019946441 -0.021951506 -0.015446922 -0.025912223 -0.20398608 -0.0037739181 0.018793114 0.019847585
-0.013921173 0.0068873223 0.0024805896 -0.0010429312 0.009647895 -0.0031453855 0.07467785 0.039740812
0.005470659 0.08436384 0.06710796 0.015649822 0.032728635 0.03961901 0.025363104 0.070449725
0.021078125 0.060212724 0.0086702015 0.06656301 0.03499436 0.10664247 0.07172853 -0.015994001
-0.075478606 -0.04726677 -0.05361722 0.024959594 -0.05428745 -0.06377207 -0.09305974 -0.052952528
-0.023279378 -0.007560549 0.05707435 0.02294678 0.054952137 0.14137019 -0.0058483807 -0.006231496
0.046778828 -0.014166075 -0.015680961 -0.017973948 -0.032602992 -0.11389409 -0.031794313 -0.048338767
-0.048772637 0.022924181

b1_conv_2.weight f4 [10, 1, 3, 3]
00000000: 06c8 21bd c70d a4bd 3f2a 31bb bafd 713d
00000010: 7b8c 6ebd 6d9f cebb 9c85 643c 75be 803c
00000020: ab02 13bc 8756 503c d771 2d3c c7f9 b33b
00000030: 8155 d2bc ec91 313e 8217 8c3b 1c01 933b
00000040: 96c4 61bc 2984 6b3b a2b9 ae3b cd41 483c
00000050: 208c c73b a553 f83c e4ef fcbd c222 58bb
00000060: 5c08 3b3c 3081 a73c 826d 303c 44cf 123b
00000070: c884 ff3c ae59 4ebb b44d 0b3e 1714 edbc
00000080: 08d6 6e3b d167 ecbb 0dcf 353a 8356 4a3b
00000090: 0f22 bf3b 4b5f bcbb 7c98 dcbc fcc0 03bc
000000a0: 2942 0dbe c620 1ebc a809 13bd 6318 34bc
000000b0: aaab 7c3b 0051 353c d9c3 033c b3d3 353c
000000c0: 5e3d 4f3a c265 053e c62e e53c ad9a 273c
000000d0: 980a 8e3c 318c af3c 5190 d83b 200b 8a3b
000000e0: 7448 9f3b 1dc0 833a 414e 3e3e 67c9 64bc
000000f0: 17c4 913b e008 17bc eec0 1d3c 327f b03c
00000100: 0b2f 433d 0071 c53b 47d6 913d 46ca b0bd
00000110: 5301 123c f92c 26bd 9b68 46bd cea4 563b
00000120: ee5b 41ba e16c 9ebb 763e 6ebc b489 d33b
00000130: 3d19 1cbe e535 0e3b 5b21 32bc 41cd 553b
00000140: a14d cebb 011a 33bc 9546 023c dcc0 403b
00000150: 1d88 24be 18a5 8dbc 56e2 8d3a e1de 0b3a
00000160: fed4 69bc 7054 b6ba
-0.039497398 -0.0801044 -0.0027033237 0.059079863 -0.05823944 -0.006305626 0.013947871 0.015715817
-0.008972804 0.012715942 0.010586224 0.0054924223 -0.025675537 0.17340821 0.0042752633 0.004486216
-0.01377978 0.0035936928 0.0053321877 0.012222719 0.0060897022 0.030313322 -0.12350443 -0.0032979702
0.011415567 0.020447344 0.010768296 0.0022401372 0.031191245 -0.0031486559 0.1360386 -0.028940244
0.003644349 -0.0072145243 0.0006935455 0.003087432 0.0058329175 -0.0057486645 -0.026928179 -0.0080416165
-0.1379477 -0.0096513685 -0.03589788 -0.010992142 0.0038554468 0.011066675 0.008042299 0.011097836
0.0007905568 0.13027099 0.027976405 0.010229749 0.017339036 0.021429153 0.0066090007 0.004212752
0.004860932 0.0010051761 0.18584539 -0.013964034 0.0044484246 -0.009218425 0.009628518 0.021545026
0.047652286 0.0060254335 0.07120948 -0.086323306 0.0089114485 -0.040570233 -0.048439603 0.003275204
-0.00073760643 -0.0048347567 -0.014541259 0.0064556245 -0.15244003 0.0021699604 -0.01087221 0.0032623562
-0.006295875 -0.010931493 0.007951398 0.0029411828 -0.16067548 -0.017290637 0.00108249 0.0005335641
-0.014271973 -0.0013910662

b1_conv_3.weight f4 [10, 1, 3, 3]
00000000: ae86 20ba c00d bb39 fb39 20ba 03d5 79ba
00000010: 6048 083e 31e1 59ba ed48 a8ba f041 6136
00000020: 0b54 a3b9 c6b8 1a3a 239d acba 0db4 a8ba
00000030: ccb0 d4b9 dcc6 abbd 3805 78ba dd81 83b9
00000040: 6a65 1f39 32bf ceba db03 503a ee12 1f3b
00000050: d845 a23a c5c1 513b ca0c 0ebe 7c17 1c3b
00000060: fa51 713a 1eb3 293a fcbd 4f3a db22 013a
00000070: 73c1 ac3a ca9d 2e3b 4da8 563b bbd7 a1bd
00000080: 2dcd 863b df78 ef3a a1a2 913b aca4 063b
00000090: 5458 a039 29d8 183b 8606 7e3a ca91 303b
000000a0: d4b7 d9bd 0fb6 513b 0a80 9539 a741 0e3b
000000b0: f278 543a 08c6 313b caad 013a e89e b43a
000000c0: 2f35 473b a278 acbd ae4c d23a 1f40 9239
000000d0: b6e8 0d3a 5e44 f939 417a a23a d6fc 0aba
000000e0: 118f ac3a 87e4 4aba a573 c73d 8f80 0cba
000000f0: 3f79 513a 326c 29ba e492 433a 96f1 443a
00000100: afb1 403b f490 c53a 5367 ccba 7aa0 bf3d
00000110: ff79 2cbb 33cd 6e3a 5c73 3abb 78f5 0039
00000120: 834c 7ebb 53ee 89bb eb4a 05bb bbaa 87bb
00000130: 853b 9ebd 62ac 09bb 8a57 0abb 99d8 efba
00000140: 6ce3 22bb f4d2 9cba 0e8d 8aba d8d2 8039
00000150: 9162 18bb ba82 a73d de79 c83a 76df a0b9
00000160: c0fe 033b 3d1d 2739
-0.00061235845 0.00035677664 -0.00061121554 -0.00095303374 0.13308859 -0.0008311449 -0.0012839116 3.3565993e-06
-0.000311524 0.0005902167 -0.0013169389 -0.0012871042 -0.00040567515 -0.08387539 -0.0009461227 -0.00025083023
0.00015201201 -0.0015773533 0.0007935145 0.0024272758 0.0012380434 0.0032006365 -0.13872066 0.0023817709
0.0009205636 0.0006473529 0.0007924733 0.00049261533 0.0013180211 0.0026644343 0.0032754124 -0.079024754
0.0041138143 0.0018270275 0.0044444357 0.002054493 0.00030583388 0.00233222 0.0009690303 0.0026942366
-0.106307656 0.0031999385 0.0002851489 0.0021706612 0.00081051805 0.0027126092 0.0004946856 0.0013780268
0.003039669 -0.084214464 0.0016044581 0.00027895064 0.00054134 0.00047543918 0.0012396054 -0.0005301958
0.0013165196 -0.00077397417 0.09738854 -0.0005359733 0.00079907844 -0.0006462961 0.0007460548 0.0007512806
0.0029402783 0.0015073107 -0.0015594758 0.0935678 -0.0026317833 0.00091095566 -0.0028450107 0.00012298475
-0.0038802929 -0.0042093187 -0.0020338844 -0.0041402257 -0.07726196 -0.002100729 -0.0021109306 -0.0018298804
-0.0024854792 -0.0011964724 -0.0010570602 0.00024571153 -0.002325211 0.08179231 0.0015295108 -0.0003068407
0.0020140857 0.00015937253

p_conv_1.weight f4 [10, 10, 1, 1]
00000000: f1d4 cb3a a225 6bbc 9ce0 d2bb 0325 4ebc
00000010: 818e 573c 8832 e23d da12 a1bc 7ac9 f23a
00000020: b9b9 12bc b8e9 473d a495 fd3c 632f 1b3e
00000030: f691 883d 0299 0cbd 4569 dbbc 322c 6fbd
00000040: acae d53b 81d6 3c3d c2be cf3c dee6 30be
00000050: 6a71 97bc 668e a7bd efdf 8bbd de9a 5a3b
00000060: 982b 00be 76d3 bbbc f3f5 a13c 65da 85bb
00000070: 5414 56bd 3591 693c e195 16be eba3 263d
00000080: db49 aabc dc03 463c ab31 71bd 4e7c 8bbd
00000090: 6508 1f3d 278e 82ba 17f9 eb3c 1b20 983d
000000a0: 0bb7 99bd efed 9bbd 3670 ec3a 6350 e0bd
000000b0: 1f6b d03d a632 8abd b0b1 4e3c 76da 323b
000000c0: 25d4 053c f8a5 7b3c 02fa 313d 1566 a03d
000000d0: 0849 943d dc68 ac3d bccb 4d3d b291 23ba
000000e0: ae16 923d 17f9 883d 1a1c 933d 6080 66bc
000000f0: e5a8 a7bc 6340 8abd 8b06 11be eaf8 a23c
00000100: 7406 393e 52c7 ec3b ec68 283d 5855 d83c
00000110: d3d1 68bd bd4c 723c 33b6 27bd 2dd2 9cbd
00000120: e830 763d 3721 e13c 0e1f fcbc 2114 b33d
00000130: 89a4 8bbc 3565 d7bc fd83 373d bff1 1dbd
00000140: 7daa e9bc 4265 1cbc e22f 903d ab56 a3bd
00000150: 22c3 b23d 1ea0 703d f7db fbbd 626e 95bd
00000160: 7b4e c13d 606e 40bd d876 b13d 3b1b d9bc
00000170: 38c7 893b fada ebbb bb04 323d ec2a e7bd
00000180: be75 69bc a9d6 67bc f7ca 36bd 577c e0bb
0.0015551132 -0.014352234 -0.006435467 -0.0125820665 0.013156534 0.11044794 -0.01966231 0.001852318
-0.008955413 0.048806876 0.030955143 0.15154795 0.06668465 -0.034325607 -0.026783595 -0.058391757
0.0065210667 0.046103004 0.025359515 -0.17275569 -0.018486697 -0.08181457 -0.06829821 0.0033356468
-0.1251663 -0.02292798 0.019770598 -0.0040848725 -0.05226548 0.014255811 -0.14705612 0.040683668
-0.02078717 0.012085881 -0.058885258 -0.068108186 0.038826365 -0.0009960578 0.028805299 0.07427999
-0.07505616 -0.076137416 0.0018038813 -0.109528325 0.10176682 -0.06747942 0.012615606 0.0027290857
0.008168255 0.015359394 0.043451317 0.078319706 0.07240492 0.08418438 0.050243124 -0.0006239667
0.07133232 0.06688135 0.07183094 -0.014068693 -0.020466277 -0.06750562 -0.14162652 0.019894082
0.18068868 0.0072259093 0.041115686 0.026407883 -0.05684073 0.014788804 -0.040945243 -0.07657275
0.060105234 0.027481658 -0.030776527 0.08744074 -0.01704623 -0.026293376 0.04480361 -0.038560625
-0.028523678 -0.009545626 0.07040383 -0.07975515 0.08728625 0.05874645 -0.12297814 -0.072964445
0.09438797 -0.04698026 0.08665246 -0.026502242 0.004204657 -0.007197735 0.043461543 -0.112874836
-0.014249263 -0.0141503 -0.044627156 -0.00685076

p_conv_2.weight f4 [10, 10, 1, 1]
00000000: 7f91 8ebd 3fa4 1c3e f24d 133d e0d9 973c
00000010: 4728 35bd db27 6c3c e479 50bd 8924 443c
00000020: 6465 7b3d bca9 0ebd 33e7 be3c e599 ebbd
00000030: 29a1 3e3c e4c9 e4bc 8d5b 923d 4d54 403d
00000040: 1062 b63c 00a2 0c3d 65c2 be3c 028c 64bc
00000050: 952a 3abd 86e4 b63d bfd8 84bd 6f6b 27ba
00000060: 6663 793d 1fe3 a4bd 44dc d1bd d297 093d
00000070: e5bf b33d 4d3b 7abc ef4a a93b c002 1bba
00000080: fbf1 13bc 5f05 5e3c 9c84 783c b1b6 b3bc
00000090: 27e8 843c 1980 793c 102e 3a3c dca1 183e
000000a0: d92e 3a3b 4eb2 023e 36eb ddbc 2f70 25bb
000000b0: 7d2b c2bb 3b50 38bd 1ee3 103e 7472 053c
000000c0: 0f74 823c 55c5 8d3d 8112 13bb ede7 7bbc
000000d0: 80ea 643c be9c d1bd 2b81 c33d 0738 83ba
000000e0: a60d 353d 5f9a 343d ef14 87bd 1280 52bc
000000f0: 8bde 28bc b628 84bc 5f6c 8b3d db82 53bc
00000100: 086e 193d cae4 1abd 0b52 7ebd f136 62bc
00000110: d53d d4bd 9088 61bd ae40 8bbd d03d 01bb
00000120: d5fa 3e3d e387 1bbc 5bec 993d 31aa e13c
00000130: 8109 f03c c559 8abd e147 593d 340c 2cbd
00000140: 7062 3fbc 4063 34bc e8bb 61bc 8beb ed3d
00000150: 59b4 8fbd a3b1 b83c 2377 363d a5b0 0abd
00000160: c96b 6838 d2d8 83bd 4d1b 8c3d 80e4 41bd
00000170: cc2c 20bc c5b6 e43b 7997 9bbd e2db 1e3c
00000180: b823 85bc 965a 7b3b 9114 f63c 5aaa e33d
-0.06961345 0.1529703 0.035963006 0.018536508 -0.044227865 0.014413799 -0.050897494 0.011971601
0.06137599 -0.03482984 0.023303604 -0.115039624 0.011635103 -0.0279283 0.07146368 0.046955395
0.022263557 0.034334183 0.023286054 -0.013949396 -0.045450766 0.08930306 -0.064866535 -0.0006386553
0.06088581 -0.080511324 -0.102470905 0.033592053 0.08776835 -0.0152729275 0.0051664035 -0.00059131905
-0.009029861 0.013551085 0.015168335 -0.0219377 0.01622398 0.015228295 0.011363521 0.14905494
0.002840927 0.1276333 -0.027089696 -0.0025243869 -0.0059255944 -0.04499839 0.14149138 0.0081449635
0.015924482 0.06922404 -0.002244145 -0.01537512 0.013971925 -0.10234974 0.09546121 -0.0010011204
0.04420247 0.044092532 -0.0659579 -0.012847917 -0.010306965 -0.016132694 0.068077795 -0.012909616
0.03745845 -0.037815847 -0.06208996 -0.013807044 -0.10363356 -0.055061877 -0.06799446 -0.001972068
0.04662593 -0.009492847 0.07515784 0.027546974 0.029301407 -0.067554034 0.053047065 -0.042003825
-0.011681184 -0.011009991 -0.0137777105 0.11617192 -0.070168205 0.022545641 0.04454721 -0.033859868
5.5413493e-05 -0.064378396 0.06841145 -0.047337055 -0.009776305 0.0069797956 -0.075972505 0.009695979
-0.016252384 0.0038353554 0.030039104 0.11116476

p_conv_3.weight f4 [10, 10, 1, 1]
00000000: cbdb 493d 154c 3cbc 4094 4a3d 8c0b b53c
00000010: 523b 71bd ad7f d33c f775 eabc 6a7c 8c3d
00000020: 5f0a debc 81cf 2b3d a265 a73d 2873 4ebd
00000030: 37b8 863d bd13 bfbc dd5d 8abd 0a08 f73c
00000040: c70f fdbb 31dc a1bb 366e aabc f653 78bc
00000050: 2d31 c23b 8cbf 5d3c 2aff a2bc b0ec 0dbd
00000060: 6764 1a3d b441 f33c 5446 c839 2f91 163d
00000070: 2e0d 50bd 41f4 333d e5ca dabc 45da 803c
00000080: b504 14bb 3e6c ce3b 654f c2bc 3c8b 1f3c
00000090: 6eec 0d3d 577c 9a3d bf92 593c f067 a53d
000000a0: 869a 353c d59c 593c d846 94bc c939 90bd
000000b0: 1a56 4d3c c10a 633c 8689 953c 2bea 5037
000000c0: b528 dcbc 1dcd 323d a0a0 a23d 833f 1fbd
000000d0: 1121 9b3c 8def d13c c8fb 82bc 82df 9cbc
000000e0: 59ec 853b 84ab 8e3a a668 bb3c d2b4 8f3c
000000f0: 6614 b7bd a10f 6c3c d3f4 d9bd eeb0 32bc
00000100: 5304 1e3d 8120 3bbd c3f1 c33d b9d5 43bd
00000110: 3b7a f83b e34f 9abc fbb0 bb3d ff46 28bd
00000120: f975 bf3d aad6 373c 6d1f 82bd 008d ed3c
00000130: 2b49 1ebd 3b7d 1c3d d26c 1cbc ebe8 9d3c
00000140: 5841 04bd 4b9f 2bbd d0bf 98bc 449a a13d
00000150: 0057 02bd 5adb 23bc d73b 1f3c 8163 a7b8
00000160: 1d4a 943c 18cb f3bc a5c5 a4bd 36f1 f53c
00000170: 7e73 a8bd eb9a 05bb 7d4a 2f3d 79a0 c33a
00000180: eb2a 6f3d 17c1 bcbc 23ac 4c3c b208 5cbb
0.049281877 -0.011492749 0.04945779 0.022100233 -0.058894463 0.025817716 -0.028620703 0.068596676
-0.027104555 0.041945938 0.08173682 -0.05040279 0.06578105 -0.023324842 -0.06756184 0.0301552
-0.007722828 -0.004939579 -0.020804506 -0.015156737 0.0059262724 0.013534438 -0.019897062 -0.03464955
0.037693407 0.029694416 0.0003819937 0.03675955 -0.05079382 0.04393411 -0.026708076 0.015729079
-0.0022585813 0.0062995246 -0.023719499 0.009737786 0.034649305 0.07543247 0.013279616 0.08076465
0.011084205 0.013282021 -0.018100187 -0.07042272 0.012532735 0.013857544 0.018254053 1.2452288e-05
-0.02687488 0.043652643 0.07940793 -0.03887893 0.018936666 0.025626922 -0.0159892 -0.019149546
0.0040870127 0.0010884856 0.022877049 0.017542277 -0.089394376 0.014408023 -0.106424 -0.010906441
0.038578343 -0.045685295 0.09567597 -0.047811244 0.0075829304 -0.018836921 0.09164616 -0.041083332
0.093486734 0.0112206135 -0.0635365 0.028997898 -0.038643997 0.038205367 -0.009547429 0.019276103
-0.03228888 -0.04189996 -0.01864615 0.07890752 -0.03182125 -0.010001028 0.009718857 -7.9817146e-05
0.018101746 -0.029759929 -0.0804551 0.030022245 -0.082251534 -0.0020386528 0.042795647 0.0014925144
0.05839054 -0.023041291 0.0124922125 -0.0033574519

output_Y.weight f4 [1, 10, 3, 3]
00000000: 89fa 5cbe d30c aabd c5d0 3dbd c032 003d
00000010: fec3 203f e9e9 82bd ff01 8cbe ef14 36be
00000020: 6db6 643d 4b94 cabd 20aa 873d 8681 22be
00000030: 7e62 883d 7310 223f b72c b9bd dfac 8b3c
00000040: 21fb d1bd bda6 8dbe 9a17 213e c6d1 ccbd
00000050: 8934 c6be a98d 9cbd 95a4 0d3e 56ac 093c
00000060: 4dc6 25be 128b a3bc 458f 6f3d 2e99 8e3d
00000070: b8c1 40be 24fa e63b 53a4 54be 468e 663e
00000080: 0a64 9d3e d5ab 6fbd f605 863d 89b6 e93d
00000090: fe63 ec3c 7e50 cf3d 6a75 b9be f8fe d13d
000000a0: c4f0 ba3d 53a9 a4bd a7f8 de3c 2f1e d73d
000000b0: 679c 373e 3af2 0bbc bf10 4dbe f2dd 0b3e
000000c0: be28 693e c232 d83c b682 1cbe 3936 5f3d
000000d0: 2dcb 2f3e 9c63 2cbe bdb1 103e cde1 dd3d
000000e0: 1554 6d3e 6f12 033e 4cba 9cbf b578 ef3d
000000f0: e6d5 5e3e a463 303e 8283 943d 2024 03be
00000100: deb0 23bd db91 61bd 7963 33be cb40 7c3f
00000110: 790f b4bd 62c9 9dbc 84ee 67be 5952 07be
00000120: 437f 093b 600b 3dbd 426c e43e 8be9 8ebd
00000130: fad6 3e3b 57da 1b3e cfc2 e0bb c2c2 40be
00000140: baa9 8ebe 75c6 973e 47c1 0dbe 14dd ec3b
00000150: 48c8 453c adfb 03bf c5e8 81bc bc52 aabd
00000160: 8bdc 293d 8e17 fb3d
-0.21579947 -0.08303227 -0.046341676 0.0312984 0.6279906 -0.06392271 -0.27345273 -0.17781423
0.055838037 -0.09891566 0.06624246 -0.15869722 0.06659411 0.6330635 -0.09041732 0.017050205
-0.10252977 -0.27666274 0.1573166 -0.100009486 -0.38711956 -0.07644207 0.13832314 0.0084029045
-0.16188927 -0.019963775 0.05848624 0.069628105 -0.18823898 0.007048862 -0.2076581 0.2251521
0.30740386 -0.05851348 0.06544106 0.11411769 0.028856274 0.101227745 -0.36222392 0.102537096
0.09127954 -0.080401085 0.027218176 0.10503804 0.17930757 -0.008541638 -0.2002592 0.13658884
0.22769448 0.02639139 -0.15284237 0.05449507 0.17167349 -0.16834873 0.14130302 0.10834084
0.23176606 0.128 -1.2244353 0.11692945 0.21761283 0.1722551 0.072516456 -0.1280675
-0.039963596 -0.05507074 -0.17518415 0.98536366 -0.08792014 -0.019261066 -0.2264958 -0.13215007
0.0020980395 -0.046153426 0.44613844 -0.069781385 0.0029119835 0.15220009 -0.0068591605 -0.18824294
-0.27863866 0.29643598 -0.1384326 0.007228503 0.012071677 -0.515559 -0.015858063 -0.083165616
0.04147009 0.12260352
